chess_color_detector/trained.tflite (tflite, 56904 bytes, 21 tensors)

model_1/Conv1/Conv2D i1 [16, 3, 3, 1]
00000000: aa92 e242 db10 207f 1368 a1f4 8167 160d
00000010: fef3 e9fe d124 5f7f f5a3 b279 7f3b 03ec
00000020: f39c 82d5 19c8 0319 8104 0fab f5c6 2102
00000030: 8125 06a7 1b02 ef4f 7fcd 37f0 dbcc a729
00000040: 1af0 7f47 fd1c 03e9 ece3 35cb ab7f e7c4
00000050: 60e9 32f0 ee7f eff7 58f6 1857 0cdb 81e3
00000060: 0c28 1207 ed0a 40a2 23ab 7fd2 d730 f681
00000070: 7105 b14e 054a 14f4 7f69 fb42 6127 e1e4
00000080: 302c 6281 f0ba 51a7 e318 8185 17ed b900
-86 -110 -30 66 -37 16 32 127
19 104 -95 -12 -127 103 22 13
-2 -13 -23 -2 -47 36 95 127
-11 -93 -78 121 127 59 3 -20
-13 -100 -126 -43 25 -56 3 25
-127 4 15 -85 -11 -58 33 2
-127 37 6 -89 27 2 -17 79
127 -51 55 -16 -37 -52 -89 41
26 -16 127 71 -3 28 3 -23
-20 -29 53 -53 -85 127 -25 -60
96 -23 50 -16 -18 127 -17 -9
88 -10 24 87 12 -37 -127 -29
12 40 18 7 -19 10 64 -94
35 -85 127 -46 -41 48 -10 -127
113 5 -79 78 5 74 20 -12
127 105 -5 66 97 39 -31 -28
48 44 98 -127 -16 -70 81 -89
-29 24 -127 -123 23 -19 -71 0

model_1/expanded_conv_depthwise_BN/FusedBatchNormV3;model_1/expanded_conv_depthwise/depthwise;model_1/block_5_project/Conv2D i1 [1, 3, 3, 16]
00000000: 01fa 0204 eb0c 0b10 fbf5 01f8 f9f7 fd00
00000010: 08fb 0005 0bff 0de5 f709 fe59 f613 0301
00000020: 03fc fe04 01f3 fe0b ff02 00f8 06fb fd00
00000030: 09f7 fe03 7fe9 81eb 7f7f 00fb 6ce7 fbee
00000040: 817f 7fff a5a6 f199 0f96 7f7f 7f7f 7f7f
00000050: 14fe fd00 f47f 07f6 fcf4 fdfc 0dfc f1f8
00000060: ffff 03f4 ec10 3b07 f8f8 ff03 fa00 fef6
00000070: 16f1 fe81 05f1 fa7f f901 01f1 f7c7 f6dd
00000080: 03fc 00fd 00fc 03fe ff02 ff00 03fb f8f5
1 -6 2 4 -21 12 11 16
-5 -11 1 -8 -7 -9 -3 0
8 -5 0 5 11 -1 13 -27
-9 9 -2 89 -10 19 3 1
3 -4 -2 4 1 -13 -2 11
-1 2 0 -8 6 -5 -3 0
9 -9 -2 3 127 -23 -127 -21
127 127 0 -5 108 -25 -5 -18
-127 127 127 -1 -91 -90 -15 -103
15 -106 127 127 127 127 127 127
20 -2 -3 0 -12 127 7 -10
-4 -12 -3 -4 13 -4 -15 -8
-1 -1 3 -12 -20 16 59 7
-8 -8 -1 3 -6 0 -2 -10
22 -15 -2 -127 5 -15 -6 127
-7 1 1 -15 -9 -57 -10 -35
3 -4 0 -3 0 -4 3 -2
-1 2 -1 0 3 -5 -8 -11

model_1/expanded_conv_project/Conv2D i1 [8, 1, 1, 16]
00000000: f0f6 eebd e5df 14ee 2807 e3fb 707f f097
00000010: 7fc6 d610 d249 bbd2 d753 e0cc f703 c2ee
00000020: dca0 2b2b 2ec2 b1e8 1da1 1d81 2be8 b516
00000030: 2807 0e12 f546 ccec 7f2f 0614 03f2 0716
00000040: a6dc e881 f320 3087 21e7 d2d9 8c21 d6e7
00000050: 5634 43e8 30d3 818d f2b8 4031 cb31 3fd7
00000060: 6c26 81b4 1db9 04a3 d617 835b 5aaa 0547
00000070: 81fd 60e8 c304 00c7 ce3d 51e2 3ce6 1d1e
-16 -10 -18 -67 -27 -33 20 -18
40 7 -29 -5 112 127 -16 -105
127 -58 -42 16 -46 73 -69 -46
-41 83 -32 -52 -9 3 -62 -18
-36 -96 43 43 46 -62 -79 -24
29 -95 29 -127 43 -24 -75 22
40 7 14 18 -11 70 -52 -20
127 47 6 20 3 -14 7 22
-90 -36 -24 -127 -13 32 48 -121
33 -25 -46 -39 -116 33 -42 -25
86 52 67 -24 48 -45 -127 -115
-14 -72 64 49 -53 49 63 -41
108 38 -127 -76 29 -71 4 -93
-42 23 -125 91 90 -86 5 71
-127 -3 96 -24 -61 4 0 -57
-50 61 81 -30 60 -26 29 30

model_1/block_1_expand/Conv2D i1 [48, 1, 1, 8]
00000000: d61e 02f3 aad9 8124 50b9 cfcb 7fab 5b18
00000010: 9d7f d181 3aee e02b 371a 620a 667a 7ff4
00000020: b881 400c c68e 00df 7fe8 4043 b8f2 02e8
00000030: 1620 7fe4 29de d41e 1f08 81e4 d45d 61b2
00000040: fb7f d615 3761 2d3a f47f bb4c 1897 1b74
00000050: 0281 f7de b882 c3a8 81b5 6a30 f9bf 673b
00000060: e627 814f 20d0 ba62 5f81 5753 0720 22c6
00000070: df5c d781 df8d dfc4 2772 23ec 26c0 6781
00000080: 8481 bf5d c61a ec51 e48c 8158 c952 cd52
00000090: 9db7 c55c fc45 037f 3d89 6381 0fbc 1ce4
000000a0: fe46 250a 287f 4af0 1c70 31de 29bf 6181
000000b0: 140d 6113 f77f 1fda 9bba 26bc 5d68 c081
000000c0: a8ad 24b1 6468 dd81 7f06 c5f4 0b20 c2f9
000000d0: 82e2 81ed d0dd 11fe 5028 fbc5 81df 575d
000000e0: 81b3 0428 ba94 02fd 7c65 2f81 1c0d bc9b
000000f0: a7bb 2fba 4957 cf81 3128 ff7f 01bb 0a09
-42 30 2 -13 -86 -39 -127 36
80 -71 -49 -53 127 -85 91 24
-99 127 -47 -127 58 -18 -32 43
55 26 98 10 102 122 127 -12
-72 -127 64 12 -58 -114 0 -33
127 -24 64 67 -72 -14 2 -24
22 32 127 -28 41 -34 -44 30
31 8 -127 -28 -44 93 97 -78
-5 127 -42 21 55 97 45 58
-12 127 -69 76 24 -105 27 116
2 -127 -9 -34 -72 -126 -61 -88
-127 -75 106 48 -7 -65 103 59
-26 39 -127 79 32 -48 -70 98
95 -127 87 83 7 32 34 -58
-33 92 -41 -127 -33 -115 -33 -60
39 114 35 -20 38 -64 103 -127
-124 -127 -65 93 -58 26 -20 81
-28 -116 -127 88 -55 82 -51 82
-99 -73 -59 92 -4 69 3 127
61 -119 99 -127 15 -68 28 -28
-2 70 37 10 40 127 74 -16
28 112 49 -34 41 -65 97 -127
20 13 97 19 -9 127 31 -38
-101 -70 38 -68 93 104 -64 -127
-88 -83 36 -79 100 104 -35 -127
127 6 -59 -12 11 32 -62 -7
-126 -30 -127 -19 -48 -35 17 -2
80 40 -5 -59 -127 -33 87 93
-127 -77 4 40 -70 -108 2 -3
124 101 47 -127 28 13 -68 -101
-89 -69 47 -70 73 87 -49 -127
49 40 -1 127 1 -69 10 9

model_1/block_1_depthwise_BN/FusedBatchNormV3;model_1/block_1_depthwise/depthwise;model_1/block_3_depthwise/depthwise i1 [1, 3, 3, 48]
00000000: cdaa f0ec 7fc6 3ac3 a9b0 e6de 7427 4181
00000010: 3bef 03d4 b77f ff0f ec51 38dd 4eba 0ade
00000020: 87a9 2b4c 1c56 6ab8 86ec 234a 3781 4f57
00000030: c790 b433 ac69 43b4 be28 4997 7f56 74b7
00000040: b3b1 22c7 c451 bd76 ac6d 5487 5ed1 0491
00000050: d2a7 4c7f 7c7e 79bc 81ba 455e 5d7e 5051
00000060: 08d5 c160 d0e6 18f7 6012 3aae 1039 d7fc
00000070: b1f6 21d1 ea16 b300 b933 0ba5 2537 7fb8
00000080: 1b06 f630 4d48 2603 ed58 3423 2525 1183
00000090: 8890 efba b1b5 568e 8181 4bba 5c34 81be
000000a0: 7f81 c4b5 a87a d20a ee5d 68d4 97b4 fed5
000000b0: a081 8147 2a56 fea5 3df0 4b77 5a7e 7d81
000000c0: 8181 819c e47f 7f81 633c 7f81 6e7f 4395
000000d0: 399f 8181 816d 817f 817f 7f81 817f ee81
000000e0: 8192 337b 7f7f e781 5f9e 7f7f 7f06 7f76
000000f0: cfb2 927f 47d9 28e3 4816 15bb 0542 4dd4
-51 -86 -16 -20 127 -58 58 -61
-87 -80 -26 -34 116 39 65 -127
59 -17 3 -44 -73 127 -1 15
-20 81 56 -35 78 -70 10 -34
-121 -87 43 76 28 86 106 -72
-122 -20 35 74 55 -127 79 87
-57 -112 -76 51 -84 105 67 -76
-66 40 73 -105 127 86 116 -73
-77 -79 34 -57 -60 81 -67 118
-84 109 84 -121 94 -47 4 -111
-46 -89 76 127 124 126 121 -68
-127 -70 69 94 93 126 80 81
8 -43 -63 96 -48 -26 24 -9
96 18 58 -82 16 57 -41 -4
-79 -10 33 -47 -22 22 -77 0
-71 51 11 -91 37 55 127 -72
27 6 -10 48 77 72 38 3
-19 88 52 35 37 37 17 -125
-120 -112 -17 -70 -79 -75 86 -114
-127 -127 75 -70 92 52 -127 -66
127 -127 -60 -75 -88 122 -46 10
-18 93 104 -44 -105 -76 -2 -43
-96 -127 -127 71 42 86 -2 -91
61 -16 75 119 90 126 125 -127
-127 -127 -127 -100 -28 127 127 -127
99 60 127 -127 110 127 67 -107
57 -97 -127 -127 -127 109 -127 127
-127 127 127 -127 -127 127 -18 -127
-127 -110 51 123 127 127 -25 -127
95 -98 127 127 127 6 127 118
-49 -78 -110 127 71 -39 40 -29
72 22 21 -69 5 66 77 -44

model_1/block_1_project/Conv2D i1 [8, 1, 1, 48]
00000000: d7fd 200c dff2 0a08 d6fa bfc8 e7bf f4df
00000010: 2cdb 272b f020 db0f 01d8 37f3 faeb 110a
00000020: 5221 2481 11fe eee0 02f0 2b30 2305 1901
00000030: fe2b 3ce6 f22c cce1 071e f1a6 0c59 ed31
00000040: ea1c e4cc 0ab3 e814 bbf3 fe8c e2f0 1dca
00000050: 3055 da05 7fde 0335 df28 aede 78ee dbe5
00000060: ffe9 c50e fe2a 1704 f929 fe18 3da4 0dc0
00000070: 25aa 1721 e931 fe19 f039 ebbb 1204 10bf
00000080: d2ad 23e0 6417 f6c7 011a 4c1a 7f12 1419
00000090: fc1c bd2b 11df bfa0 0eed df02 081c 2347
000000a0: fa11 df1b 08a3 1dc7 bafa 7ff2 d405 c20d
000000b0: ffb4 0ef6 edd8 e865 d1e1 0213 2900 d926
000000c0: e5d0 fb07 1de1 f3f7 1be1 3ab1 051b 0808
000000d0: f0ea 0ff4 fccc 04ee 10f4 2a31 1f12 ef1e
000000e0: f400 00fe bd54 23e8 20ec ebe7 b20d 7f0b
000000f0: 30e4 020d 19d8 2581 1fe7 f975 ac45 16c2
-41 -3 32 12 -33 -14 10 8
-42 -6 -65 -56 -25 -65 -12 -33
44 -37 39 43 -16 32 -37 15
1 -40 55 -13 -6 -21 17 10
82 33 36 -127 17 -2 -18 -32
2 -16 43 48 35 5 25 1
-2 43 60 -26 -14 44 -52 -31
7 30 -15 -90 12 89 -19 49
-22 28 -28 -52 10 -77 -24 20
-69 -13 -2 -116 -30 -16 29 -54
48 85 -38 5 127 -34 3 53
-33 40 -82 -34 120 -18 -37 -27
-1 -23 -59 14 -2 42 23 4
-7 41 -2 24 61 -92 13 -64
37 -86 23 33 -23 49 -2 25
-16 57 -21 -69 18 4 16 -65
-46 -83 35 -32 100 23 -10 -57
1 26 76 26 127 18 20 25
-4 28 -67 43 17 -33 -65 -96
14 -19 -33 2 8 28 35 71
-6 17 -33 27 8 -93 29 -57
-70 -6 127 -14 -44 5 -62 13
-1 -76 14 -10 -19 -40 -24 101
-47 -31 2 19 41 0 -39 38
-27 -48 -5 7 29 -31 -13 -9
27 -31 58 -79 5 27 8 8
-16 -22 15 -12 -4 -52 4 -18
16 -12 42 49 31 18 -17 30
-12 0 0 -2 -67 84 35 -24
32 -20 -21 -25 -78 13 127 11
48 -28 2 13 25 -40 37 -127
31 -25 -7 117 -84 69 22 -62

model_1/block_2_expand/Conv2D i1 [48, 1, 1, 8]
00000000: 487f b19c 115c 134d 40b8 2681 cb3f aed1
00000010: e87f 792e 6dfa 2405 612e ac3c fea2 81e5
00000020: d122 08b2 df69 7f2d 1157 81b5 345c 19eb
00000030: f17f 423d 4205 0da7 7feb e222 1904 5b0c
00000040: 297f 4a62 7c5c 6da2 2776 8198 1f71 0c55
00000050: b7d6 12ce f9e8 d37f 1a8d 81f2 1df1 2df2
00000060: e08e 83de 8121 be2d f40a 9e63 81e6 fdf1
00000070: b7d0 81f4 21ff f5c8 1ca1 8110 a6e7 ebef
00000080: 7fbd f441 b214 1b61 e26c 7fe2 cef3 eaec
00000090: 1281 2951 fab6 2aa9 7fd7 cb29 9c0a 2870
000000a0: e581 4c4c f2a4 fbb5 03d0 efe3 7ff7 2910
000000b0: 811d ba2e 2c31 a5a0 aecb 4205 987f 78c8
000000c0: e340 fcd7 d27f 7902 c789 81c4 caed f1c9
000000d0: 0141 f17f 9f2f c4f7 1381 1c4d 15cc 0b88
000000e0: 0b7f 4837 74eb 13bd 681b e702 4581 9226
000000f0: 1af9 2081 0fed 14e4 2fd8 073d f31b 0e7f
72 127 -79 -100 17 92 19 77
64 -72 38 -127 -53 63 -82 -47
-24 127 121 46 109 -6 36 5
97 46 -84 60 -2 -94 -127 -27
-47 34 8 -78 -33 105 127 45
17 87 -127 -75 52 92 25 -21
-15 127 66 61 66 5 13 -89
127 -21 -30 34 25 4 91 12
41 127 74 98 124 92 109 -94
39 118 -127 -104 31 113 12 85
-73 -42 18 -50 -7 -24 -45 127
26 -115 -127 -14 29 -15 45 -14
-32 -114 -125 -34 -127 33 -66 45
-12 10 -98 99 -127 -26 -3 -15
-73 -48 -127 -12 33 -1 -11 -56
28 -95 -127 16 -90 -25 -21 -17
127 -67 -12 65 -78 20 27 97
-30 108 127 -30 -50 -13 -22 -20
18 -127 41 81 -6 -74 42 -87
127 -41 -53 41 -100 10 40 112
-27 -127 76 76 -14 -92 -5 -75
3 -48 -17 -29 127 -9 41 16
-127 29 -70 46 44 49 -91 -96
-82 -53 66 5 -104 127 120 -56
-29 64 -4 -41 -46 127 121 2
-57 -119 -127 -60 -54 -19 -15 -55
1 65 -15 127 -97 47 -60 -9
19 -127 28 77 21 -52 11 -120
11 127 72 55 116 -21 19 -67
104 27 -25 2 69 -127 -110 38
26 -7 32 -127 15 -19 20 -28
47 -40 7 61 -13 27 14 127

model_1/block_2_depthwise_BN/FusedBatchNormV3;model_1/block_2_depthwise/depthwise;model_1/block_3_depthwise/depthwise i1 [1, 3, 3, 48]
00000000: 0dd6 0805 e8b2 db2e df01 ff0e 32fd ef04
00000010: 6110 2303 08e9 b716 f0f0 fbf1 c24a f387
00000020: 3cf6 d8c5 f7dd 04ea ec1f 0706 f438 7feb
00000030: 81a7 e97f b84d a47f 210d 1104 3414 fbd3
00000040: de3f 1c04 017f 0d7f 7fe1 ce23 3d81 f4ab
00000050: 56f5 df85 1c04 ccc9 8100 a486 232e 307e
00000060: f2fe 0a06 e22c 2725 09dc 0809 effe fd05
00000070: bd29 c0df f5e6 7f14 ca00 08f5 0e29 08f8
00000080: 05f1 e64d 0a00 0e52 14f0 15df f920 e4ec
00000090: f6f2 e3fd 1aa5 7fa8 fe12 172c 7f12 ffdd
000000a0: e5e2 2732 4bc4 2a14 b87f b3f8 7f9d 3481
000000b0: d7ff bb09 0abd d100 6f7f 0681 bfc6 fc5b
000000c0: 6281 7ff9 7f4d c0c3 2e7f 7f81 ae7f 7f7f
000000d0: 7f7f 7f7f 7f7c fe0a 7b9c 817f 2076 7f00
000000e0: 817f 7f7f 817f 8182 222a 81e4 7f81 f25c
000000f0: 1420 d6f7 ce7f 915a 7eb5 1948 e306 0dbd
13 -42 8 5 -24 -78 -37 46
-33 1 -1 14 50 -3 -17 4
97 16 35 3 8 -23 -73 22
-16 -16 -5 -15 -62 74 -13 -121
60 -10 -40 -59 -9 -35 4 -22
-20 31 7 6 -12 56 127 -21
-127 -89 -23 127 -72 77 -92 127
33 13 17 4 52 20 -5 -45
-34 63 28 4 1 127 13 127
127 -31 -50 35 61 -127 -12 -85
86 -11 -33 -123 28 4 -52 -55
-127 0 -92 -122 35 46 48 126
-14 -2 10 6 -30 44 39 37
9 -36 8 9 -17 -2 -3 5
-67 41 -64 -33 -11 -26 127 20
-54 0 8 -11 14 41 8 -8
5 -15 -26 77 10 0 14 82
20 -16 21 -33 -7 32 -28 -20
-10 -14 -29 -3 26 -91 127 -88
-2 18 23 44 127 18 -1 -35
-27 -30 39 50 75 -60 42 20
-72 127 -77 -8 127 -99 52 -127
-41 -1 -69 9 10 -67 -47 0
111 127 6 -127 -65 -58 -4 91
98 -127 127 -7 127 77 -64 -61
46 127 127 -127 -82 127 127 127
127 127 127 127 127 124 -2 10
123 -100 -127 127 32 118 127 0
-127 127 127 127 -127 127 -127 -126
34 42 -127 -28 127 -127 -14 92
20 32 -42 -9 -50 127 -111 90
126 -75 25 72 -29 6 13 -67

model_1/block_2_project/Conv2D i1 [8, 1, 1, 48]
00000000: d2ce e7c4 faeb 5655 a1a8 d70c cf03 cd20
00000010: ae0a 127f 3be5 0a57 454c 1806 a2ca b2cc
00000020: ce5a 23d2 1ae1 57fe 1a03 029c 2adf dbb0
00000030: f033 e9ea bb3c f0cc e146 ea1a 3733 d3ff
00000040: f189 4fd3 7f04 c711 38fd a842 24f4 4321
00000050: e1ed 06e9 026b f4e4 4529 f911 6811 e733
00000060: e7de 7508 57d2 f31b e5fe f133 0dd7 d481
00000070: ce99 e50f 9a15 dcd9 ce10 01d5 d506 e6f5
00000080: 05f9 1ef7 1cde d20a 27e2 1cd5 d5d6 c6c9
00000090: 2c10 3b08 17dd 2441 caee 30e8 be38 ed38
000000a0: 4424 df22 9ab5 7f02 0a06 bde8 cd44 71bf
000000b0: 0397 e429 f7b9 ec45 b6cd 44fd a4c1 3cf7
000000c0: 0eeb 41e9 03fa 03fa caf6 e50d 32bb 2aa3
000000d0: 2d2d fae0 0c1d 1704 fe09 36ef 191b 81f5
000000e0: e6e8 060b 32fb 2000 d6f3 c01d f5a0 0012
000000f0: 19d3 3c22 1c13 1e02 bbf6 d120 1efd 12d4
-46 -50 -25 -60 -6 -21 86 85
-95 -88 -41 12 -49 3 -51 32
-82 10 18 127 59 -27 10 87
69 76 24 6 -94 -54 -78 -52
-50 90 35 -46 26 -31 87 -2
26 3 2 -100 42 -33 -37 -80
-16 51 -23 -22 -69 60 -16 -52
-31 70 -22 26 55 51 -45 -1
-15 -119 79 -45 127 4 -57 17
56 -3 -88 66 36 -12 67 33
-31 -19 6 -23 2 107 -12 -28
69 41 -7 17 104 17 -25 51
-25 -34 117 8 87 -46 -13 27
-27 -2 -15 51 13 -41 -44 -127
-50 -103 -27 15 -102 21 -36 -39
-50 16 1 -43 -43 6 -26 -11
5 -7 30 -9 28 -34 -46 10
39 -30 28 -43 -43 -42 -58 -55
44 16 59 8 23 -35 36 65
-54 -18 48 -24 -66 56 -19 56
68 36 -33 34 -102 -75 127 2
10 6 -67 -24 -51 68 113 -65
3 -105 -28 41 -9 -71 -20 69
-74 -51 68 -3 -92 -63 60 -9
14 -21 65 -23 3 -6 3 -6
-54 -10 -27 13 50 -69 42 -93
45 45 -6 -32 12 29 23 4
-2 9 54 -17 25 27 -127 -11
-26 -24 6 11 50 -5 32 0
-42 -13 -64 29 -11 -96 0 18
25 -45 60 34 28 19 30 2
-69 -10 -47 32 30 -3 18 -44

model_1/block_3_expand/Conv2D i1 [48, 1, 1, 8]
00000000: 501f 7fdc 4a6b a4c2 08b1 8104 3a15 1e04
00000010: 81ff cfe2 2c1a b6dc 314f 7fb2 f489 fcea
00000020: 8114 c9ea 2c0d d4c1 931f cbf2 072d a881
00000030: dd89 812b 6208 0031 bf81 a1b4 bdb5 0f5c
00000040: 5421 f6f9 6cae 810f d732 d352 c2de 7fe6
00000050: e87f 2742 70f3 f13b b3e4 e7fd b55c 7ffc
00000060: 401f 8121 f6df c0f5 34e3 c20b 0481 dced
00000070: 05b7 4802 7f99 ce18 d4d9 ff7f 3a57 b01f
00000080: 7622 d70f 4693 81ea 3d7f 3049 2b3c 15af
00000090: 1df5 09f6 7f08 25f5 097f 1f10 8b10 1be4
000000a0: d50f 4081 1824 ee69 d648 3081 1a37 ee6e
000000b0: b4b9 9e0b 817d 74e9 631e 8112 0fca bfe8
000000c0: cb32 030a ed55 8169 a2cf 810e ccbc 3e5f
000000d0: 2ffa d7e5 66ee 7fd7 7fb9 1f60 fc25 e969
000000e0: 3039 39f3 7fc9 2fe5 eef9 e9da bc0e 7fe4
000000f0: 2181 d0ba a008 08c8 0c1e f2f4 8103 def4
80 31 127 -36 74 107 -92 -62
8 -79 -127 4 58 21 30 4
-127 -1 -49 -30 44 26 -74 -36
49 79 127 -78 -12 -119 -4 -22
-127 20 -55 -22 44 13 -44 -63
-109 31 -53 -14 7 45 -88 -127
-35 -119 -127 43 98 8 0 49
-65 -127 -95 -76 -67 -75 15 92
84 33 -10 -7 108 -82 -127 15
-41 50 -45 82 -62 -34 127 -26
-24 127 39 66 112 -13 -15 59
-77 -28 -25 -3 -75 92 127 -4
64 31 -127 33 -10 -33 -64 -11
52 -29 -62 11 4 -127 -36 -19
5 -73 72 2 127 -103 -50 24
-44 -39 -1 127 58 87 -80 31
118 34 -41 15 70 -109 -127 -22
61 127 48 73 43 60 21 -81
29 -11 9 -10 127 8 37 -11
9 127 31 16 -117 16 27 -28
-43 15 64 -127 24 36 -18 105
-42 72 48 -127 26 55 -18 110
-76 -71 -98 11 -127 125 116 -23
99 30 -127 18 15 -54 -65 -24
-53 50 3 10 -19 85 -127 105
-94 -49 -127 14 -52 -68 62 95
47 -6 -41 -27 102 -18 127 -41
127 -71 31 96 -4 37 -23 105
48 57 57 -13 127 -55 47 -27
-18 -7 -23 -38 -68 14 127 -28
33 -127 -48 -70 -96 8 8 -56
12 30 -14 -12 -127 3 -34 -12

model_1/block_3_depthwise_BN/FusedBatchNormV3;model_1/block_3_depthwise/depthwise i1 [1, 3, 3, 48]
00000000: a041 8162 8d46 cf5e bebb 32cb 40a8 d1ca
00000010: 5244 538a 4681 4ea7 adcb 4075 9cd0 9934
00000020: 4aa2 3ba5 ae8f 63c9 f49b 7e96 6449 b3b9
00000030: 8160 bf6e 9a7f cc6e 9f9e 64b3 6597 c0ae
00000040: 726c 7f81 688d 5981 8ea1 4e7f 21bb a018
00000050: 6781 5681 9881 62b0 9662 7a86 d964 9f98
00000060: bd31 ef20 e13b e945 cdd6 31da 2edd ecdb
00000070: 2a37 3cd3 1cd2 2ad9 d3df 1828 5ff2 cc14
00000080: 28b2 22ca d9d8 26de 81cf 2dd4 b73d e0b5
00000090: 9d5d c377 a074 8572 a7a0 45b4 4ca7 ac9a
000000a0: 6655 cd8f 5c8a 6fb9 9aad 576c 81a4 837f
000000b0: 631d 669c 9799 77ad 988b 6f88 7f50 89a9
000000c0: 8e7f a57f 8176 817f 8181 7f81 7f81 8181
000000d0: 7f7f c596 7f8d 7f8c 8181 7f69 1a81 8175
000000e0: 7f2b 7f90 8194 7f81 917f 7f81 c27f 8181
000000f0: ba37 a82b ca26 c54f c3dc 38c9 38da d0e7
-96 65 -127 98 -115 70 -49 94
-66 -69 50 -53 64 -88 -47 -54
82 68 83 -118 70 -127 78 -89
-83 -53 64 117 -100 -48 -103 52
74 -94 59 -91 -82 -113 99 -55
-12 -101 126 -106 100 73 -77 -71
-127 96 -65 110 -102 127 -52 110
-97 -98 100 -77 101 -105 -64 -82
114 108 127 -127 104 -115 89 -127
-114 -95 78 127 33 -69 -96 24
103 -127 86 -127 -104 -127 98 -80
-106 98 122 -122 -39 100 -97 -104
-67 49 -17 32 -31 59 -23 69
-51 -42 49 -38 46 -35 -20 -37
42 55 60 -45 28 -46 42 -39
-45 -33 24 40 95 -14 -52 20
40 -78 34 -54 -39 -40 38 -34
-127 -49 45 -44 -73 61 -32 -75
-99 93 -61 119 -96 116 -123 114
-89 -96 69 -76 76 -89 -84 -102
102 85 -51 -113 92 -118 111 -71
-102 -83 87 108 -127 -92 -125 127
99 29 102 -100 -105 -103 119 -83
-104 -117 111 -120 127 80 -119 -87
-114 127 -91 127 -127 118 -127 127
-127 -127 127 -127 127 -127 -127 -127
127 127 -59 -106 127 -115 127 -116
-127 -127 127 105 26 -127 -127 117
127 43 127 -112 -127 -108 127 -127
-111 127 127 -127 -62 127 -127 -127
-70 55 -88 43 -54 38 -59 79
-61 -36 56 -55 56 -38 -48 -25

model_1/block_3_project/Conv2D i1 [16, 1, 1, 48]
00000000: 1421 13e1 403f d535 f277 002e db1e f22f
00000010: 2453 30c6 b64e f52d 3931 2430 d1d2 f754
00000020: e109 b230 3381 dc0c 0ee4 37fa f9c4 c4f1
00000030: ccff b3d5 0f56 ca12 f4dd d423 3ff2 e9e8
00000040: e4dd f711 be2e 92ce c8d6 2c47 e6e5 2dd8
00000050: 08bf db31 0fc7 7fda e91b cdf4 2437 1b10
00000060: fe08 3ad9 e8ac 0e13 6b55 b713 71c9 7f53
00000070: b8ea d825 51b2 d792 0fde 2bb4 2833 d00a
00000080: 23ea 3629 bd0d ffe6 221b 44ec 15a1 6bca
00000090: 2a07 e9e2 226e 0bf1 2bcd 16e6 cc0a 0527
000000a0: d4bb 1b89 f601 e8f4 d85a 7f40 f5d1 1b27
000000b0: 3eeb 6222 d7c1 0226 170e f6fe 1911 fbeb
000000c0: 6df5 02d0 5e5c 3315 49ef 961c 27ea 0dee
000000d0: 9a81 e697 ee15 dce5 af7c 9a79 c8c4 225a
000000e0: 27d2 18e5 f009 e519 cbf4 0038 d072 dccd
000000f0: fdfd c604 f538 13df 3d38 255a 37e9 24fa
20 33 19 -31 64 63 -43 53
-14 119 0 46 -37 30 -14 47
36 83 48 -58 -74 78 -11 45
57 49 36 48 -47 -46 -9 84
-31 9 -78 48 51 -127 -36 12
14 -28 55 -6 -7 -60 -60 -15
-52 -1 -77 -43 15 86 -54 18
-12 -35 -44 35 63 -14 -23 -24
-28 -35 -9 17 -66 46 -110 -50
-56 -42 44 71 -26 -27 45 -40
8 -65 -37 49 15 -57 127 -38
-23 27 -51 -12 36 55 27 16
-2 8 58 -39 -24 -84 14 19
107 85 -73 19 113 -55 127 83
-72 -22 -40 37 81 -78 -41 -110
15 -34 43 -76 40 51 -48 10
35 -22 54 41 -67 13 -1 -26
34 27 68 -20 21 -95 107 -54
42 7 -23 -30 34 110 11 -15
43 -51 22 -26 -52 10 5 39
-44 -69 27 -119 -10 1 -24 -12
-40 90 127 64 -11 -47 27 39
62 -21 98 34 -41 -63 2 38
23 14 -10 -2 25 17 -5 -21
109 -11 2 -48 94 92 51 21
73 -17 -106 28 39 -22 13 -18
-102 -127 -26 -105 -18 21 -36 -27
-81 124 -102 121 -56 -60 34 90
39 -46 24 -27 -16 9 -27 25
-53 -12 0 56 -48 114 -36 -51
-3 -3 -58 4 -11 56 19 -33
61 56 37 90 55 -23 36 -6

model_1/block_4_expand/Conv2D i1 [96, 1, 1, 16]
00000000: 250c ff41 81ea 5e37 3e52 f128 0bfe 164c
00000010: ea16 a005 7f60 fefd de15 c416 c84e c5e3
00000020: cd4d 4f05 4e51 052a 1b04 2af4 3681 0019
00000030: 7fec 22f8 1020 ed09 2b1f c6e5 cd24 dc2b
00000040: afe6 0e23 8af3 9ddf f128 f1cb de1f d77f
00000050: a109 210c 7f14 0409 d225 e106 bd30 9fd7
00000060: 8112 d820 fab6 3917 07ec cb24 0300 df0a
00000070: fe59 3c99 4d3c 7fff 2908 f120 5c19 e501
00000080: e5fc b933 db4c e3b8 15e1 4930 7f3d a614
00000090: dc81 f05f c9c0 ee3b 3b2b 0d3a a10b 00dd
000000a0: dbc7 9d1b a57f 46c2 17d1 30da 2864 ab3d
000000b0: d795 e122 ff5f 180c 2110 35b5 0b7f 8b6f
000000c0: d38b 9a7b 9381 1e3f 4f4a e16a fac0 d900
000000d0: bae6 de01 f306 1e0d f27f f6e6 231d 11f6
000000e0: 81de cbe0 0673 ee90 73d8 4205 67d1 96a7
000000f0: 0781 66c3 c8d8 033d 16d1 a4db 54d4 e7ca
37 12 -1 65 -127 -22 94 55
62 82 -15 40 11 -2 22 76
-22 22 -96 5 127 96 -2 -3
-34 21 -60 22 -56 78 -59 -29
-51 77 79 5 78 81 5 42
27 4 42 -12 54 -127 0 25
127 -20 34 -8 16 32 -19 9
43 31 -58 -27 -51 36 -36 43
-81 -26 14 35 -118 -13 -99 -33
-15 40 -15 -53 -34 31 -41 127
-95 9 33 12 127 20 4 9
-46 37 -31 6 -67 48 -97 -41
-127 18 -40 32 -6 -74 57 23
7 -20 -53 36 3 0 -33 10
-2 89 60 -103 77 60 127 -1
41 8 -15 32 92 25 -27 1
-27 -4 -71 51 -37 76 -29 -72
21 -31 73 48 127 61 -90 20
-36 -127 -16 95 -55 -64 -18 59
59 43 13 58 -95 11 0 -35
-37 -57 -99 27 -91 127 70 -62
23 -47 48 -38 40 100 -85 61
-41 -107 -31 34 -1 95 24 12
33 16 53 -75 11 127 -117 111
-45 -117 -102 123 -109 -127 30 63
79 74 -31 106 -6 -64 -39 0
-70 -26 -34 1 -13 6 30 13
-14 127 -10 -26 35 29 17 -10
-127 -34 -53 -32 6 115 -18 -112
115 -40 66 5 103 -47 -106 -89
7 -127 102 -61 -56 -40 3 61
22 -47 -92 -37 84 -44 -25 -54

model_1/block_4_depthwise_BN/FusedBatchNormV3;model_1/block_4_depthwise/depthwise;model_1/block_6_expand/Conv2D i1 [1, 3, 3, 96]
00000000: d0fe 03d5 47f5 28f2 f900 f4e3 d906 fdf8
00000010: ef05 f7ee 051f 1530 ffe4 f0f9 1302 1c00
00000020: db04 f8e6 05b8 e7eb 02f0 39dc e121 c3f3
00000030: d308 fd2b b704 14f9 fcfb 03e6 f4f7 ecc0
00000040: e6f0 d9d6 f21c fe01 1609 0703 f103 7fda
00000050: a60b 9ee9 e0eb 220d ecef 0cd0 fc22 e50d
00000060: ea28 47c3 d3f8 7fcb fff2 d809 b808 aa51
00000070: f646 53de f17f 407f 1cfe 2a3d 7f2f 7fdc
00000080: 81f0 99de f09c 7fb0 e581 facb 42dd ec01
00000090: 1fff 1d7f 9c2d a8fb afff f41d f38b 81c6
000000a0: ba06 fd86 f114 bc6a 81fb 16e3 819e fabc
000000b0: 810b 1ed1 6540 d116 8100 21e9 1273 c2b6
000000c0: e907 06e7 2bfa 40e4 eb0c f3fc f108 fdde
000000d0: f2fe e6e2 f90d 101e f9f5 0de5 0708 0d07
000000e0: eb01 eb3f ffce e506 f80b 19f1 eaec d6e9
000000f0: e2fb 021a fffe f9f3 23f5 ffeb fcff d6e6
-48 -2 3 -43 71 -11 40 -14
-7 0 -12 -29 -39 6 -3 -8
-17 5 -9 -18 5 31 21 48
-1 -28 -16 -7 19 2 28 0
-37 4 -8 -26 5 -72 -25 -21
2 -16 57 -36 -31 33 -61 -13
-45 8 -3 43 -73 4 20 -7
-4 -5 3 -26 -12 -9 -20 -64
-26 -16 -39 -42 -14 28 -2 1
22 9 7 3 -15 3 127 -38
-90 11 -98 -23 -32 -21 34 13
-20 -17 12 -48 -4 34 -27 13
-22 40 71 -61 -45 -8 127 -53
-1 -14 -40 9 -72 8 -86 81
-10 70 83 -34 -15 127 64 127
28 -2 42 61 127 47 127 -36
-127 -16 -103 -34 -16 -100 127 -80
-27 -127 -6 -53 66 -35 -20 1
31 -1 29 127 -100 45 -88 -5
-81 -1 -12 29 -13 -117 -127 -58
-70 6 -3 -122 -15 20 -68 106
-127 -5 22 -29 -127 -98 -6 -68
-127 11 30 -47 101 64 -47 22
-127 0 33 -23 18 115 -62 -74
-23 7 6 -25 43 -6 64 -28
-21 12 -13 -4 -15 8 -3 -34
-14 -2 -26 -30 -7 13 16 30
-7 -11 13 -27 7 8 13 7
-21 1 -21 63 -1 -50 -27 6
-8 11 25 -15 -22 -20 -42 -23
-30 -5 2 26 -1 -2 -7 -13
35 -11 -1 -21 -4 -1 -42 -26

model_1/block_4_project/Conv2D i1 [16, 1, 1, 96]
00000000: 0f0d 0d13 f4b6 f305 e4b0 10f5 3cba 3e21
00000010: aee1 260d 5510 b407 ee4b 7f4a 0a47 3ed7
00000020: 0007 01e0 111a f5f9 7210 1be4 f9f9 fdd1
00000030: 17e0 57f3 bafe 2915 01d6 061d 0422 c4f3
00000040: 0efa 3e1d 04e4 1516 0d22 031f 37e4 2c17
00000050: ed2f 2322 c707 f940 1407 a3ee 1905 7655
00000060: 1227 d0f1 fdd1 58be c1e2 c4db feda f1d4
00000070: efe1 e8f7 f5b2 6fd1 f40c fb39 c10e df0c
00000080: de0a 040f f23b c84c 2008 fcc8 2dcf 0126
00000090: c4f6 25a0 d82d 442c 191f ba11 d6fd f0ec
000000a0: 261c 6007 d581 0805 0d34 ed16 cee4 5be7
000000b0: 2df4 30ce ebc8 f20c ead6 2301 34bc e72f
000000c0: 08ee 13f1 402e c50f cd28 20df 1cf3 1f23
000000d0: 21f1 81ff f2d9 f316 0ff2 cd0c e4e8 e54a
000000e0: f1e7 070d d015 e2ed 4307 1331 0938 fffa
000000f0: ae0c f20d f737 17bf 2811 3521 e5fc f83b
15 13 13 19 -12 -74 -13 5
-28 -80 16 -11 60 -70 62 33
-82 -31 38 13 85 16 -76 7
-18 75 127 74 10 71 62 -41
0 7 1 -32 17 26 -11 -7
114 16 27 -28 -7 -7 -3 -47
23 -32 87 -13 -70 -2 41 21
1 -42 6 29 4 34 -60 -13
14 -6 62 29 4 -28 21 22
13 34 3 31 55 -28 44 23
-19 47 35 34 -57 7 -7 64
20 7 -93 -18 25 5 118 85
18 39 -48 -15 -3 -47 88 -66
-63 -30 -60 -37 -2 -38 -15 -44
-17 -31 -24 -9 -11 -78 111 -47
-12 12 -5 57 -63 14 -33 12
-34 10 4 15 -14 59 -56 76
32 8 -4 -56 45 -49 1 38
-60 -10 37 -96 -40 45 68 44
25 31 -70 17 -42 -3 -16 -20
38 28 96 7 -43 -127 8 5
13 52 -19 22 -50 -28 91 -25
45 -12 48 -50 -21 -56 -14 12
-22 -42 35 1 52 -68 -25 47
8 -18 19 -15 64 46 -59 15
-51 40 32 -33 28 -13 31 35
33 -15 -127 -1 -14 -39 -13 22
15 -14 -51 12 -28 -24 -27 74
-15 -25 7 13 -48 21 -30 -19
67 7 19 49 9 56 -1 -6
-82 12 -14 13 -9 55 23 -65
40 17 53 33 -27 -4 -8 59

model_1/block_5_expand/Conv2D i1 [96, 1, 1, 16]
00000000: cb1d e60a d3a9 acd2 49cd 25c6 4b81 208c
00000010: 8f36 9295 b811 fc3e d003 51c7 3d7f 0b30
00000020: d5f7 b008 fdda 24c4 aa78 3a03 3c3e cb7f
00000030: c0a7 feba 9701 b185 ec0f 389e 9bd5 81d2
00000040: 4ffb ec29 bdf7 812b 1253 0a34 160e d3a4
00000050: a031 bfdb 2ac0 e3be 60e1 0ccc 1881 9ea7
00000060: f3e2 e317 b949 1fde edd0 7fe7 f9ff 90fc
00000070: e976 7fba 3f51 fedd 2c41 b6f6 39fc 2c52
00000080: d9ff 13f5 450e 527f b4ed bca7 2364 b0c1
00000090: 0731 4316 9ff6 c3b1 471a 7f1d e8bf 32f0
000000a0: fb8a 11b2 8147 2015 eac2 f62c f432 8112
000000b0: 77ca f663 8fda 2cfa 7f7a d130 0ea6 f86f
000000c0: b5c2 7feb 44e5 2136 46f0 5d56 ec12 9b26
000000d0: f7df 1f1f 0015 7f24 9d06 180f ea76 5db8
000000e0: 7fa9 6a0a 4b47 7731 453c 3a2f 47de 10d8
000000f0: f471 16d3 177f c230 dde0 d5eb df67 e1d3
-53 29 -26 10 -45 -87 -84 -46
73 -51 37 -58 75 -127 32 -116
-113 54 -110 -107 -72 17 -4 62
-48 3 81 -57 61 127 11 48
-43 -9 -80 8 -3 -38 36 -60
-86 120 58 3 60 62 -53 127
-64 -89 -2 -70 -105 1 -79 -123
-20 15 56 -98 -101 -43 -127 -46
79 -5 -20 41 -67 -9 -127 43
18 83 10 52 22 14 -45 -92
-96 49 -65 -37 42 -64 -29 -66
96 -31 12 -52 24 -127 -98 -89
-13 -30 -29 23 -71 73 31 -34
-19 -48 127 -25 -7 -1 -112 -4
-23 118 127 -70 63 81 -2 -35
44 65 -74 -10 57 -4 44 82
-39 -1 19 -11 69 14 82 127
-76 -19 -68 -89 35 100 -80 -63
7 49 67 22 -97 -10 -61 -79
71 26 127 29 -24 -65 50 -16
-5 -118 17 -78 -127 71 32 21
-22 -62 -10 44 -12 50 -127 18
119 -54 -10 99 -113 -38 44 -6
127 122 -47 48 14 -90 -8 111
-75 -62 127 -21 68 -27 33 54
70 -16 93 86 -20 18 -101 38
-9 -33 31 31 0 21 127 36
-99 6 24 15 -22 118 93 -72
127 -87 106 10 75 71 119 49
69 60 58 47 71 -34 16 -40
-12 113 22 -45 23 127 -62 48
-35 -32 -43 -21 -33 103 -31 -45

model_1/block_5_depthwise_BN/FusedBatchNormV3;model_1/block_5_depthwise/depthwise;model_1/block_6_expand/Conv2D i1 [1, 3, 3, 96]
00000000: 2477 0201 eb00 1f21 49a8 ae19 eef5 31e2
00000010: bc12 100f 2444 5864 1210 d900 fa08 19ee
00000020: daf9 eb76 ff22 09f4 1ae0 fe32 81d1 06d2
00000030: f1c5 dcfa 1441 eef1 bfba d181 81ec 95fb
00000040: e127 22ed f01d 2b10 db02 35ef 11d3 c114
00000050: fcb4 36e9 abd9 f61a 980c ba2c 42f3 3f03
00000060: e1d6 0442 0056 e2fa 4d19 8138 dad6 ab7f
00000070: 9f39 3444 7b0d 7f7f 1c06 0f26 f77f 0381
00000080: 3c5b 0e38 5261 ee81 7ffd 607f dfb6 7fa4
00000090: fcb3 90ea 1d7f eb81 1320 8bae df83 d052
000000a0: d54e 7fe0 057f 7f08 aa23 e781 33b9 127f
000000b0: fac8 7fc4 81dc 6f3b 5f7c b30f 7fe6 7f1d
000000c0: 138a fd21 fdf3 f42d 261f cd11 f42f 1ac2
000000d0: ea0d fc0e 3328 4364 0ce6 1b25 021b 07ca
000000e0: e4ac e641 07f5 0e05 fa24 f337 d8ee fe09
000000f0: 22e2 0efe 1be4 0df7 3dab e5c4 88fc b6f1
36 119 2 1 -21 0 31 33
73 -88 -82 25 -18 -11 49 -30
-68 18 16 15 36 68 88 100
18 16 -39 0 -6 8 25 -18
-38 -7 -21 118 -1 34 9 -12
26 -32 -2 50 -127 -47 6 -46
-15 -59 -36 -6 20 65 -18 -15
-65 -70 -47 -127 -127 -20 -107 -5
-31 39 34 -19 -16 29 43 16
-37 2 53 -17 17 -45 -63 20
-4 -76 54 -23 -85 -39 -10 26
-104 12 -70 44 66 -13 63 3
-31 -42 4 66 0 86 -30 -6
77 25 -127 56 -38 -42 -85 127
-97 57 52 68 123 13 127 127
28 6 15 38 -9 127 3 -127
60 91 14 56 82 97 -18 -127
127 -3 96 127 -33 -74 127 -92
-4 -77 -112 -22 29 127 -21 -127
19 32 -117 -82 -33 -125 -48 82
-43 78 127 -32 5 127 127 8
-86 35 -25 -127 51 -71 18 127
-6 -56 127 -60 -127 -36 111 59
95 124 -77 15 127 -26 127 29
19 -118 -3 33 -3 -13 -12 45
38 31 -51 17 -12 47 26 -62
-22 13 -4 14 51 40 67 100
12 -26 27 37 2 27 7 -54
-28 -84 -26 65 7 -11 14 5
-6 36 -13 55 -40 -18 -2 9
34 -30 14 -2 27 -28 13 -9
61 -85 -27 -60 -120 -4 -74 -15

model_1/block_5_project/Conv2D i1 [16, 1, 1, 96]
00000000: 842b 4ad9 b7f8 b204 ba0d eed5 242e 2dd8
00000010: 0005 5908 12cd 7d43 3e16 041f b581 a4fb
00000020: d4cb 1709 1221 fd22 f5f6 a4f8 c0e7 0463
00000030: e701 d2e1 fc0c 19cc 9513 f560 3a28 0306
00000040: d4c5 d821 bcb7 07f1 0501 bbd3 d60c e80a
00000050: c546 4dad 0c36 052a 20ec f0e6 e4d8 c707
00000060: 1313 23c6 bee5 f911 ec0e 34c1 fff3 b6dc
00000070: 020b c420 fdb0 0535 fdc4 fcd0 429c 77af
00000080: 3e1b f426 264e f3de 2209 f8fb 0a38 81c8
00000090: c3c2 f4e3 24d4 d327 ff02 eb10 2b42 f8a0
000000a0: ecea bef6 ffef a3f0 d3ee 0ab7 fd0b 2fb7
000000b0: e9e3 a2e9 1ed8 ee0c bcec c51d 1a32 d23f
000000c0: 65da 0d14 1fbd 3df5 0001 fcfd bce6 0cd3
000000d0: abc0 d52a 01c9 db1e f8ba 08e2 e027 be7f
000000e0: d274 e029 f1ea ebee 915e 500d b70b e6fb
000000f0: 2a12 d5c1 39e4 f148 35ff 27f3 f41f e705
-124 43 74 -39 -73 -8 -78 4
-70 13 -18 -43 36 46 45 -40
0 5 89 8 18 -51 125 67
62 22 4 31 -75 -127 -92 -5
-44 -53 23 9 18 33 -3 34
-11 -10 -92 -8 -64 -25 4 99
-25 1 -46 -31 -4 12 25 -52
-107 19 -11 96 58 40 3 6
-44 -59 -40 33 -68 -73 7 -15
5 1 -69 -45 -42 12 -24 10
-59 70 77 -83 12 54 5 42
32 -20 -16 -26 -28 -40 -57 7
19 19 35 -58 -66 -27 -7 17
-20 14 52 -63 -1 -13 -74 -36
2 11 -60 32 -3 -80 5 53
-3 -60 -4 -48 66 -100 119 -81
62 27 -12 38 38 78 -13 -34
34 9 -8 -5 10 56 -127 -56
-61 -62 -12 -29 36 -44 -45 39
-1 2 -21 16 43 66 -8 -96
-20 -22 -66 -10 -1 -17 -93 -16
-45 -18 10 -73 -3 11 47 -73
-23 -29 -94 -23 30 -40 -18 12
-68 -20 -59 29 26 50 -46 63
101 -38 13 20 31 -67 61 -11
0 1 -4 -3 -68 -26 12 -45
-85 -64 -43 42 1 -55 -37 30
-8 -70 8 -30 -32 39 -66 127
-46 116 -32 41 -15 -22 -21 -18
-111 94 80 13 -73 11 -26 -5
42 18 -43 -63 57 -28 -15 72
53 -1 39 -13 -12 31 -25 5

model_1/block_6_expand/Conv2D i1 [96, 1, 1, 16]
00000000: ef61 b71c 2aeb 5d3a cafd 28a6 557f c20c
00000010: e6fb c0ef fe31 1981 15da dfc3 f0dc ce0d
00000020: e4e6 224c 0c27 9e7f eb08 47c9 f1c3 d641
00000030: 50aa 42ff 01e3 e77f e339 3720 f336 0411
00000040: d3e2 f136 af11 e681 fefe 0ddf 1c36 677c
00000050: 7f19 e2ee b319 2050 0bfd 3457 7921 a20b
00000060: 10d4 b9c7 b30a 05c9 c7c9 cd10 6140 7f01
00000070: cc1b dfb7 06cb ba0c a235 aeb3 81de 0562
00000080: 3327 460b 371a 490c 40e6 2405 81e9 b40f
00000090: d73e 21ce e4f9 1aed e72b dd0c 297f 1513
000000a0: 402d cd39 edf7 36dc b6e7 ba95 81be 0064
000000b0: 3713 4314 fae1 0c7f 9d28 e306 f201 4c7f
000000c0: c9ed 02fb 1709 7f24 c514 06e9 fb57 c86f
000000d0: 2e1d 1649 7f11 7477 c366 81b8 0a56 8df7
000000e0: 8175 fef8 050c 46f9 d228 6ee4 8d1d c13b
000000f0: e6e7 81d4 52dc a3d9 e4ed edb4 efb0 c736
-17 97 -73 28 42 -21 93 58
-54 -3 40 -90 85 127 -62 12
-26 -5 -64 -17 -2 49 25 -127
21 -38 -33 -61 -16 -36 -50 13
-28 -26 34 76 12 39 -98 127
-21 8 71 -55 -15 -61 -42 65
80 -86 66 -1 1 -29 -25 127
-29 57 55 32 -13 54 4 17
-45 -30 -15 54 -81 17 -26 -127
-2 -2 13 -33 28 54 103 124
127 25 -30 -18 -77 25 32 80
11 -3 52 87 121 33 -94 11
16 -44 -71 -57 -77 10 5 -55
-57 -55 -51 16 97 64 127 1
-52 27 -33 -73 6 -53 -70 12
-94 53 -82 -77 -127 -34 5 98
51 39 70 11 55 26 73 12
64 -26 36 5 -127 -23 -76 15
-41 62 33 -50 -28 -7 26 -19
-25 43 -35 12 41 127 21 19
64 45 -51 57 -19 -9 54 -36
-74 -25 -70 -107 -127 -66 0 100
55 19 67 20 -6 -31 12 127
-99 40 -29 6 -14 1 76 127
-55 -19 2 -5 23 9 127 36
-59 20 6 -23 -5 87 -56 111
46 29 22 73 127 17 116 119
-61 102 -127 -72 10 86 -115 -9
-127 117 -2 -8 5 12 70 -7
-46 40 110 -28 -115 29 -63 59
-26 -25 -127 -44 82 -36 -93 -39
-28 -19 -19 -76 -17 -80 -57 54

model_1/head/Conv2D i1 [32, 1, 1, 96]
00000000: 0d1f 19c2 a8fe e651 f8db abcf a270 bc30
00000010: 2b49 2107 c9b2 e80c 609f fe3a 30a2 4af7
00000020: b73f 1dc7 ed18 bcf1 a2c4 69a3 2bf3 bd66
00000030: 9462 a508 eb3f 0e3a cb97 0d29 ea35 1998
00000040: 3a81 9e1e 13c2 0368 cf2f d95f d2d0 e3f7
00000050: a33b 46fb e2ab deae 1616 1e2e 9fae db3b
00000060: 2c03 331f 1af9 2f3f 1437 cb27 b5bb 10cb
00000070: dfef 03fa 502c d2cb 1610 efed 441f fee1
00000080: dbdb cdd3 19d3 e416 0a7f f51e 42fc db16
00000090: 1fba 0eea 05e8 00be 1925 3cf8 3ce1 0f03
000000a0: 5919 fd3e 3b37 1a51 fa0d 2035 33d4 4ef6
000000b0: d546 d046 094e bc13 def4 2fea ec04 1f0b
000000c0: 0fcb a181 de15 4a01 11dd ccc8 394a af9c
000000d0: 9333 ca14 a2c4 2314 b051 dfda dde8 b422
000000e0: 2cc9 2dfb a90c ac3a 4dde 6752 bff9 4114
000000f0: 03b6 ee55 9ec0 01ac d511 547e 554d b159
13 31 25 -62 -88 -2 -26 81
-8 -37 -85 -49 -94 112 -68 48
43 73 33 7 -55 -78 -24 12
96 -97 -2 58 48 -94 74 -9
-73 63 29 -57 -19 24 -68 -15
-94 -60 105 -93 43 -13 -67 102
-108 98 -91 8 -21 63 14 58
-53 -105 13 41 -22 53 25 -104
58 -127 -98 30 19 -62 3 104
-49 47 -39 95 -46 -48 -29 -9
-93 59 70 -5 -30 -85 -34 -82
22 22 30 46 -97 -82 -37 59
44 3 51 31 26 -7 47 63
20 55 -53 39 -75 -69 16 -53
-33 -17 3 -6 80 44 -46 -53
22 16 -17 -19 68 31 -2 -31
-37 -37 -51 -45 25 -45 -28 22
10 127 -11 30 66 -4 -37 22
31 -70 14 -22 5 -24 0 -66
25 37 60 -8 60 -31 15 3
89 25 -3 62 59 55 26 81
-6 13 32 53 51 -44 78 -10
-43 70 -48 70 9 78 -68 19
-34 -12 47 -22 -20 4 31 11
15 -53 -95 -127 -34 21 74 1
17 -35 -52 -56 57 74 -81 -100
-109 51 -54 20 -94 -60 35 20
-80 81 -33 -38 -35 -24 -76 34
44 -55 45 -5 -87 12 -84 58
77 -34 103 82 -65 -7 65 20
3 -74 -18 85 -98 -64 1 -84
-43 17 84 126 85 77 -79 89

model_1/logits/Conv2D i1 [3, 1, 1, 32]
00000000: c37f c4f2 6cc4 d1ef 56ea 07b1 1b18 f7ce
00000010: cb26 b918 2bae 3fc0 2009 5308 fc1f 0048
00000020: 63bb b809 fd2f 9f81 bb7b 540d 6d59 ffbf
00000030: 6ad7 aaa8 6cfd 0d35 b14b ede4 480c bfdf
00000040: f090 706a f94b 9cf2 d124 9760 f9b8 6f39
00000050: 5c8c b55c 031e 172e 81c5 f5f2 165c ce3a
-61 127 -60 -14 108 -60 -47 -17
86 -22 7 -79 27 24 -9 -50
-53 38 -71 24 43 -82 63 -64
32 9 83 8 -4 31 0 72
99 -69 -72 9 -3 47 -97 -127
-69 123 84 13 109 89 -1 -65
106 -41 -86 -88 108 -3 13 53
-79 75 -19 -28 72 12 -65 -33
-16 -112 112 106 -7 75 -100 -14
-47 36 -105 96 -7 -72 111 57
92 -116 -75 92 3 30 23 46
-127 -59 -11 -14 22 92 -50 58
