chess_piece_detector/trained.tflite (tflite, 57144 bytes, 21 tensors)

model_1/Conv1/Conv2D i1 [16, 3, 3, 1]
000000 ab 93 e3 43 db 11 20 7f 14 69 a1 f5 81 68 17 0e
       -85 -109 -29 67 -37 17 32 127 20 105 -95 -11 -127 104 23 14
000010 fe f3 e9 fe d1 24 5f 7f f4 a2 b1 79 7f 3c 02 eb
       -2 -13 -23 -2 -47 36 95 127 -12 -94 -79 121 127 60 2 -21
000020 f3 9b 81 d6 1b c0 ff 1a 81 09 0f a6 f2 b8 24 fe
       -13 -101 -127 -42 27 -64 -1 26 -127 9 15 -90 -14 -72 36 -2
000030 81 27 02 aa 1a fa f1 50 7f ce 38 f1 dc cd a9 28
       -127 39 2 -86 26 -6 -15 80 127 -50 56 -15 -36 -51 -87 40
000040 1c f1 7f 47 fd 28 0d f0 ec e3 35 cc ab 7f e7 c4
       28 -15 127 71 -3 40 13 -16 -20 -29 53 -52 -85 127 -25 -60
000050 60 e4 40 f7 e9 7f f4 f8 5d f9 18 57 0b db 81 e2
       96 -28 64 -9 -23 127 -12 -8 93 -7 24 87 11 -37 -127 -30
000060 0b 27 11 07 ed 0a 41 a2 23 ab 7f d1 d7 31 f6 81
       11 39 17 7 -19 10 65 -94 35 -85 127 -47 -41 49 -10 -127
000070 73 06 b2 50 06 5e 2a fd 6d 5c f1 52 7f 38 e2 e4
       115 6 -78 80 6 94 42 -3 109 92 -15 82 127 56 -30 -28
000080 2f 2c 62 81 f0 ba 50 bc eb 14 90 81 0b e8 a5 ec
       47 44 98 -127 -16 -70 80 -68 -21 20 -112 -127 11 -24 -91 -20

model_1/expanded_conv_depthwise_BN/FusedBatchNormV3;model_1/expanded_conv_depthwise/depthwise;model_1/block_5_project/Conv2D i1 [1, 3, 3, 16]
000000 fa fb 07 05 ea 0c ff 0f fe f5 fc fc fc f7 06 00
       -6 -5 7 5 -22 12 -1 15 -2 -11 -4 -4 -4 -9 6 0
000010 00 f3 04 02 0b ff 07 e6 fa 09 f6 59 f6 15 ff 00
       0 -13 4 2 11 -1 7 -26 -6 9 -10 89 -10 21 -1 0
000020 fe fb fc 09 00 f3 f6 0a 07 02 f7 f7 00 fc ff 01
       -2 -5 -4 9 0 -13 -10 10 7 2 -9 -9 0 -4 -1 1
000030 10 ee 03 04 7f e8 81 eb 7f 7f fe 03 75 e7 f9 ee
       16 -18 3 4 127 -24 -127 -21 127 127 -2 3 117 -25 -7 -18
000040 81 7f 7f fe a7 a5 ee 9a 12 97 7f 7f 7f 7f 7f 7f
       -127 127 127 -2 -89 -91 -18 -102 18 -105 127 127 127 127 127 127
000050 1a fb fd 00 f6 7f ff f5 02 f3 f6 ff 0d fd f2 fa
       26 -5 -3 0 -10 127 -1 -11 2 -13 -10 -1 13 -3 -14 -6
000060 07 05 07 e8 ed 10 35 07 f9 f8 fa 04 03 01 02 f5
       7 5 7 -24 -19 16 53 7 -7 -8 -6 4 3 1 2 -11
000070 19 e3 02 81 06 f0 f6 7f fa 01 fe f7 fb c7 f5 dd
       25 -29 2 -127 6 -16 -10 127 -6 1 -2 -9 -5 -57 -11 -35
000080 0b fd 08 f6 01 fc 01 fd 04 02 f5 02 05 fc fa f6
       11 -3 8 -10 1 -4 1 -3 4 2 -11 2 5 -4 -6 -10

model_1/expanded_conv_project/Conv2D i1 [8, 1, 1, 16]
000000 f4 f6 ea bd eb e1 16 f1 24 0d e4 f8 6d 7f f2 a0
       -12 -10 -22 -67 -21 -31 22 -15 36 13 -28 -8 109 127 -14 -96
000010 7f c6 d2 13 cb 45 b8 d5 d9 55 d6 c8 fc 08 bc f0
       127 -58 -46 19 -53 69 -72 -43 -39 85 -42 -56 -4 8 -68 -16
000020 df 9b 27 2a 29 c1 af e9 1e a8 1e 81 2d ec b3 15
       -33 -101 39 42 41 -63 -81 -23 30 -88 30 -127 45 -20 -77 21
000030 29 08 0e 14 ec 46 c7 eb 7f 2d 0b 12 00 f4 07 16
       41 8 14 20 -20 70 -57 -21 127 45 11 18 0 -12 7 22
000040 aa e5 ee 81 f9 22 2e 8c 20 e8 d4 df 93 20 da eb
       -86 -27 -18 -127 -7 34 46 -116 32 -24 -44 -33 -109 32 -38 -21
000050 5a 34 48 de 31 cd 88 81 f1 b2 40 34 cc 2c 39 d3
       90 52 72 -34 49 -51 -120 -127 -15 -78 64 52 -52 44 57 -45
000060 66 23 81 b2 11 bb 03 ab d6 13 87 57 59 ad 01 4c
       102 35 -127 -78 17 -69 3 -85 -42 19 -121 87 89 -83 1 76
000070 81 00 5d e1 c6 06 02 c8 cd 40 4e e4 37 e4 1d 1a
       -127 0 93 -31 -58 6 2 -56 -51 64 78 -28 55 -28 29 26

model_1/block_1_expand/Conv2D i1 [48, 1, 1, 8]
000000 d7 0b 04 f8 9e de 81 15 4c be ce c9 7f ad 55 17
       -41 11 4 -8 -98 -34 -127 21 76 -66 -50 -55 127 -83 85 23
000010 98 77 ce 81 2f ea e6 28 36 0f 63 01 60 7e 7f f6
       -104 119 -50 -127 47 -22 -26 40 54 15 99 1 96 126 127 -10
000020 b4 8b 4a 1d c9 81 ff cb 7f e5 52 49 ab e7 fa e4
       -76 -117 74 29 -55 -127 -1 -53 127 -27 82 73 -85 -25 -6 -28
000030 1f 27 7f e2 2f da d6 1d 1a 09 81 e4 d8 5b 63 bc
       31 39 127 -30 47 -38 -42 29 26 9 -127 -28 -40 91 99 -68
000040 05 7d de 03 43 7f 51 38 f1 61 c5 4d fa a1 18 7f
       5 125 -34 3 67 127 81 56 -15 97 -59 77 -6 -95 24 127
000050 0a 81 f5 e9 ab 86 c6 a7 81 b8 69 2f fa bf 5d 3e
       10 -127 -11 -23 -85 -122 -58 -89 -127 -72 105 47 -6 -65 93 62
000060 e5 36 81 53 2b b9 b7 59 5e 81 56 58 08 1b 25 c2
       -27 54 -127 83 43 -71 -73 89 94 -127 86 88 8 27 37 -62
000070 da 59 ca 98 ea 81 e7 c9 2b 71 21 ee 25 c6 62 81
       -38 89 -54 -104 -22 -127 -25 -55 43 113 33 -18 37 -58 98 -127
000080 81 85 be 5f d6 14 de 5d ea 89 81 5f c1 4e cd 4e
       -127 -123 -66 95 -42 20 -34 93 -22 -119 -127 95 -63 78 -51 78
000090 a3 b7 d3 61 04 56 f6 7f 3c 83 5d 81 11 bb 1c e0
       -93 -73 -45 97 4 86 -10 127 60 -125 93 -127 17 -69 28 -32
0000a0 02 46 27 15 2b 7f 4a f5 20 6f 2f e4 25 bb 5c 81
       2 70 39 21 43 127 74 -11 32 111 47 -28 37 -69 92 -127
0000b0 08 0f 75 12 f3 7f 1e db 89 b1 2c ae 65 74 ba 81
       8 15 117 18 -13 127 30 -37 -119 -79 44 -82 101 116 -70 -127
0000c0 98 ad 23 b2 5e 5a db 81 7f 07 c7 f7 0b 1e c6 f6
       -104 -83 35 -78 94 90 -37 -127 127 7 -57 -9 11 30 -58 -10
0000d0 81 dd 88 e3 cb e5 16 00 49 26 fb c0 81 de 56 5c
       -127 -35 -120 -29 -53 -27 22 0 73 38 -5 -64 -127 -34 86 92
0000e0 81 a5 09 26 ab 88 15 f4 65 4f 24 81 13 0a cb ac
       -127 -91 9 38 -85 -120 21 -12 101 79 36 -127 19 10 -53 -84
0000f0 94 af 22 ac 50 63 bb 81 2e 2b f4 7f 02 b5 02 0a
       -108 -81 34 -84 80 99 -69 -127 46 43 -12 127 2 -75 2 10

model_1/block_1_depthwise_BN/FusedBatchNormV3;model_1/block_1_depthwise/depthwise;model_1/block_3_depthwise/depthwise i1 [1, 3, 3, 48]
000000 cf a7 f8 e4 7f d2 40 cf 9c a8 e7 d0 7f 2e 2f 81
       -49 -89 -8 -28 127 -46 64 -49 -100 -88 -25 -48 127 46 47 -127
000010 35 e0 0a da bb 7b fc 13 f8 5a 47 db 4a b6 1a cb
       53 -32 10 -38 -69 123 -4 19 -8 90 71 -37 74 -74 26 -53
000020 81 a7 28 55 15 4e 7f cb 85 ea 35 4a 34 81 5b 47
       -127 -89 40 85 21 78 127 -53 -123 -22 53 74 52 -127 91 71
000030 c7 98 ab 27 b2 69 3d b9 b7 2d 51 81 77 63 57 b1
       -57 -104 -85 39 -78 105 61 -71 -73 45 81 -127 119 99 87 -79
000040 a2 98 28 c5 a4 52 a5 68 ab 7f 6c 85 59 cb 03 81
       -94 -104 40 -59 -92 82 -91 104 -85 127 108 -123 89 -53 3 -127
000050 c9 b3 49 7f 6e 76 71 cc 81 bd 40 60 4e 68 59 3c
       -55 -77 73 127 110 118 113 -52 -127 -67 64 96 78 104 89 60
000060 02 b5 aa 5b d4 ef 16 eb 54 0c 33 93 15 41 da e8
       2 -75 -86 91 -44 -17 22 -21 84 12 51 -109 21 65 -38 -24
000070 ad eb 23 d6 e1 04 90 ee ad 5d 1a 9c 1f 34 75 a8
       -83 -21 35 -42 -31 4 -112 -18 -83 93 26 -100 31 52 117 -88
000080 03 00 f7 2f 4c 47 36 fe e6 6e 42 20 24 20 15 87
       3 0 -9 47 76 71 54 -2 -26 110 66 32 36 32 21 -121
000090 a5 94 f9 c1 b5 b8 66 81 81 81 5e b6 5f 30 81 bf
       -91 -108 -7 -63 -75 -72 102 -127 -127 -127 94 -74 95 48 -127 -65
0000a0 7f 81 c5 d1 ab 7f dd 14 00 6c 75 d0 9b b1 08 bb
       127 -127 -59 -47 -85 127 -35 20 0 108 117 -48 -101 -79 8 -69
0000b0 99 81 81 4d 37 56 f9 ad 36 ea 5e 7f 63 6d 7f 81
       -103 -127 -127 77 55 86 -7 -83 54 -22 94 127 99 109 127 -127
0000c0 81 81 81 a1 e8 7f 7f 85 4a 3f 7f 82 58 7f 35 92
       -127 -127 -127 -95 -24 127 127 -123 74 63 127 -126 88 127 53 -110
0000d0 2e a1 81 81 81 78 81 7f 84 7a 7f 81 81 7f f8 86
       46 -95 -127 -127 -127 120 -127 127 -124 122 127 -127 -127 127 -8 -122
0000e0 97 a7 26 69 7f 7f e6 81 5e 95 7f 7d 7f ff 79 60
       -105 -89 38 105 127 127 -26 -127 94 -107 127 125 127 -1 121 96
0000f0 ce 9d 83 7f 45 da 2a c7 42 11 10 c4 0b 4a 46 c6
       -50 -99 -125 127 69 -38 42 -57 66 17 16 -60 11 74 70 -58

model_1/block_1_project/Conv2D i1 [8, 1, 1, 48]
000000 d7 f7 24 09 e0 ed 0c 0b d9 fd bf c6 e4 bf f8 e4
       -41 -9 36 9 -32 -19 12 11 -39 -3 -65 -58 -28 -65 -8 -28
000010 2f d7 29 26 f1 21 d8 0d fe dc 38 ef 01 eb 14 0c
       47 -41 41 38 -15 33 -40 13 -2 -36 56 -17 1 -21 20 12
000020 52 24 21 81 0d 03 f0 dc 03 ed 2b 30 1e 07 1c ff
       82 36 33 -127 13 3 -16 -36 3 -19 43 48 30 7 28 -1
000030 ff 28 35 e3 f9 2a cb f0 06 15 f7 9f 10 58 ee 3f
       -1 40 53 -29 -7 42 -53 -16 6 21 -9 -97 16 88 -18 63
000040 ee 0c eb c6 16 af e5 13 bd f6 01 8d e7 f0 20 d1
       -18 12 -21 -58 22 -81 -27 19 -67 -10 1 -115 -25 -16 32 -47
000050 2f 4b d1 09 7f e8 05 2f e6 2c b6 dd 77 ec df e7
       47 75 -47 9 127 -24 5 47 -26 44 -74 -35 119 -20 -33 -25
000060 f6 ea c8 0d fe 29 16 05 f7 2b fc 1b 49 a8 1a cc
       -10 -22 -56 13 -2 41 22 5 -9 43 -4 27 73 -88 26 -52
000070 26 a6 14 1c e5 2d fc 1b ef 39 ee c3 10 02 13 c0
       38 -90 20 28 -27 45 -4 27 -17 57 -18 -61 16 2 19 -64
000080 d2 b6 1d e5 5c 22 fa c6 fd 17 50 19 7f 11 12 19
       -46 -74 29 -27 92 34 -6 -58 -3 23 80 25 127 17 18 25
000090 fd 18 b9 2a 0e d9 bb 94 0d ee dd fe 02 1a 26 49
       -3 24 -71 42 14 -39 -69 -108 13 -18 -35 -2 2 26 38 73
0000a0 f8 11 dd 1b 06 9c 1f c8 af f5 7f ec d5 09 c4 08
       -8 17 -35 27 6 -100 31 -56 -81 -11 127 -20 -43 9 -60 8
0000b0 ff ac 0d ef ef ce e4 69 d3 dc ff 15 26 06 d8 2e
       -1 -84 13 -17 -17 -50 -28 105 -45 -36 -1 21 38 6 -40 46
0000c0 e8 cb f8 05 1e e4 f3 f4 1d e2 35 b3 03 1c 09 0c
       -24 -53 -8 5 30 -28 -13 -12 29 -30 53 -77 3 28 9 12
0000d0 f1 e6 11 f2 f8 cc 02 ec 13 f5 28 33 26 12 ef 22
       -15 -26 17 -14 -8 -52 2 -20 19 -11 40 51 38 18 -17 34
0000e0 f4 fd 02 ff bb 58 26 e5 18 e9 ea e9 b4 0e 7f 0a
       -12 -3 2 -1 -69 88 38 -27 24 -23 -22 -23 -76 14 127 10
0000f0 38 e5 fc 0d 20 d6 20 81 1f e1 fc 72 b4 46 16 be
       56 -27 -4 13 32 -42 32 -127 31 -31 -4 114 -76 70 22 -66

model_1/block_2_expand/Conv2D i1 [48, 1, 1, 8]
000000 30 7f ad c2 05 53 fe 3d 35 b8 48 81 ce 53 ad e5
       48 127 -83 -62 5 83 -2 61 53 -72 72 -127 -50 83 -83 -27
000010 dc 7f 79 29 6d fc 36 0f 55 2c a7 31 f3 a1 81 d6
       -36 127 121 41 109 -4 54 15 85 44 -89 49 -13 -95 -127 -42
000020 d1 13 06 bc ce 73 7f 2e 01 57 81 bd 2b 63 12 d7
       -47 19 6 -68 -50 115 127 46 1 87 -127 -67 43 99 18 -41
000030 07 7f 5a 45 39 17 27 c4 71 e6 bb 0d 13 1f 7f fd
       7 127 90 69 57 23 39 -60 113 -26 -69 13 19 31 127 -3
000040 3d 7f 32 4e 77 63 7a a0 27 67 81 ac f8 6e 11 32
       61 127 50 78 119 99 122 -96 39 103 -127 -84 -8 110 17 50
000050 c6 d0 0b da fd de df 7f 0e 90 81 f4 0a f5 26 ef
       -58 -48 11 -38 -3 -34 -33 127 14 -112 -127 -12 10 -11 38 -17
000060 19 8c 8d d6 81 10 c5 32 f5 0e a3 64 81 e3 fb f5
       25 -116 -115 -42 -127 16 -59 50 -11 14 -93 100 -127 -29 -5 -11
000070 c4 d3 81 fb 1a fc f5 c7 14 8b 81 1e ab f4 cb f6
       -60 -45 -127 -5 26 -4 -11 -57 20 -117 -127 30 -85 -12 -53 -10
000080 7f cc ec 33 b4 13 27 56 f6 7e 7f f4 c6 e5 e6 dc
       127 -52 -20 51 -76 19 39 86 -10 126 127 -12 -58 -27 -26 -36
000090 1d 81 26 45 eb b9 35 9f 7f d1 c0 22 8d 0c 26 61
       29 -127 38 69 -21 -71 53 -97 127 -47 -64 34 -115 12 38 97
0000a0 e4 81 53 51 f5 a9 01 bc fc c1 e1 ce 7f f1 38 17
       -28 -127 83 81 -11 -87 1 -68 -4 -63 -31 -50 127 -15 56 23
0000b0 81 1b b5 2d 28 2e a8 8d a8 e6 4d 02 a7 7f 65 d7
       -127 27 -75 45 40 46 -88 -115 -88 -26 77 2 -89 127 101 -41
0000c0 d8 3e ff dd d0 7f 5b f6 c8 a4 81 b1 d3 e9 e4 c4
       -40 62 -1 -35 -48 127 91 -10 -56 -92 -127 -79 -45 -23 -28 -60
0000d0 f3 45 02 7f 97 26 b4 fb 0b 81 12 42 06 d8 0e 81
       -13 69 2 127 -105 38 -76 -5 11 -127 18 66 6 -40 14 -127
0000e0 11 7f 30 4c 5b fb f4 ba 69 09 d2 e5 43 81 af 27
       17 127 48 76 91 -5 -12 -70 105 9 -46 -27 67 -127 -81 39
0000f0 18 f0 19 81 16 e9 17 e2 2d e7 0d 46 f9 1f 02 7f
       24 -16 25 -127 22 -23 23 -30 45 -25 13 70 -7 31 2 127

model_1/block_2_depthwise_BN/FusedBatchNormV3;model_1/block_2_depthwise/depthwise;model_1/block_3_depthwise/depthwise i1 [1, 3, 3, 48]
000000 07 b7 12 09 e9 9a dc 21 d8 07 f9 0b 2b 0b f9 04
       7 -73 18 9 -23 -102 -36 33 -40 7 -7 11 43 11 -7 4
000010 60 f5 35 0f 21 fd c8 14 fc f2 ed e1 bb 55 de 83
       96 -11 53 15 33 -3 -56 20 -4 -14 -19 -31 -69 85 -34 -125
000020 38 e8 d3 c1 f3 d9 fd ef fc 2c 09 d8 fd 4a 7f f8
       56 -24 -45 -63 -13 -39 -3 -17 -4 44 9 -40 -3 74 127 -8
000030 81 9f ef 7f b7 47 a1 7f 15 0f 0a fb 2c 20 f9 d2
       -127 -97 -17 127 -73 71 -95 127 21 15 10 -5 44 32 -7 -46
000040 ea 39 1c ff 14 7f 10 7f 7f dc cf 1c 4f 86 e7 b7
       -22 57 28 -1 20 127 16 127 127 -36 -49 28 79 -122 -25 -73
000050 4f f3 e5 81 12 16 c2 bd 8c 00 8f 81 2b 38 28 7c
       79 -13 -27 -127 18 22 -62 -67 -116 0 -113 -127 43 56 40 124
000060 f0 05 11 06 e5 30 28 33 f3 d7 ee 00 e3 18 fd 00
       -16 5 17 6 -27 48 40 51 -13 -41 -18 0 -29 24 -3 0
000070 d3 10 b7 eb 06 ee 7f 18 d9 09 00 02 08 32 f8 d4
       -45 16 -73 -21 6 -18 127 24 -39 9 0 2 8 50 -8 -44
000080 fe df e2 56 00 0d 01 55 1e ed 11 d5 04 20 f1 e9
       -2 -33 -30 86 0 13 1 85 30 -19 17 -43 4 32 -15 -23
000090 f2 d4 ea 01 22 9b 7f 99 fc 14 1c 26 7f 1b 0c e4
       -14 -44 -22 1 34 -101 127 -103 -4 20 28 38 127 27 12 -28
0000a0 ec d4 23 40 5a d8 3b 0c ce 7f a4 e0 7f a3 2a 81
       -20 -44 35 64 90 -40 59 12 -50 127 -92 -32 127 -93 42 -127
0000b0 d7 fc bf 05 0b af cf 15 78 7f 09 9c c8 ce fa 63
       -41 -4 -65 5 11 -81 -49 21 120 127 9 -100 -56 -50 -6 99
0000c0 5a 81 7f fe 7f 55 ba c7 3c 7f 7f 81 a6 7f 7f 7f
       90 -127 127 -2 127 85 -70 -57 60 127 127 -127 -90 127 127 127
0000d0 7f 7f 74 7f 7f 77 0b 0d 78 9a 81 5e 27 7f 7f 22
       127 127 116 127 127 119 11 13 120 -102 -127 94 39 127 127 34
0000e0 81 7f 7f 78 81 7f 81 83 23 2a 81 f4 7f 81 db 57
       -127 127 127 120 -127 127 -127 -125 35 42 -127 -12 127 -127 -37 87
0000f0 11 2c db f8 cf 7f 8b 62 6d b0 08 3c db 19 0e c2
       17 44 -37 -8 -49 127 -117 98 109 -80 8 60 -37 25 14 -62

model_1/block_2_project/Conv2D i1 [8, 1, 1, 48]
000000 ca d0 ed b0 fc ef 6d 5a 9d a8 ef 01 c6 f5 b9 35
       -54 -48 -19 -80 -4 -17 109 90 -99 -88 -17 1 -58 -11 -71 53
000010 9a 0b 1c 7f 46 e5 fc 6b 50 52 26 18 93 c4 a5 bd
       -102 11 28 127 70 -27 -4 107 80 82 38 24 -109 -60 -91 -67
000020 d1 6d 16 ce 1c e6 60 10 1f 0e f7 85 2a e6 e7 a9
       -47 109 22 -50 28 -26 96 16 31 14 -9 -123 42 -26 -25 -87
000030 ef 2f e3 eb ba 3b eb cc df 48 f0 12 3c 33 d9 ef
       -17 47 -29 -21 -70 59 -21 -52 -33 72 -16 18 60 51 -39 -17
000040 f0 8a 4d cd 7f 0e c9 15 32 fd 99 42 1a ec 3d 13
       -16 -118 77 -51 127 14 -55 21 50 -3 -103 66 26 -20 61 19
000050 dd e8 f8 ef 01 69 f3 e3 51 2a eb 00 65 18 eb 2d
       -35 -24 -8 -17 1 105 -13 -29 81 42 -21 0 101 24 -21 45
000060 e2 dc 76 ff 57 d4 f4 1c df fe fb 25 04 da df 81
       -30 -36 118 -1 87 -44 -12 28 -33 -2 -5 37 4 -38 -33 -127
000070 cb a5 e9 0f a2 1d e0 dc cb 11 f7 d3 dd 11 e2 ee
       -53 -91 -23 15 -94 29 -32 -36 -53 17 -9 -45 -35 17 -30 -18
000080 fa fb 11 fc 1e e5 d0 0a 31 dd 17 d0 e0 d9 cf c5
       -6 -5 17 -4 30 -27 -48 10 49 -35 23 -48 -32 -39 -49 -59
000090 3e 11 3d 1a 14 d5 27 51 cf e2 25 ed b4 2b e4 38
       62 17 61 26 20 -43 39 81 -49 -30 37 -19 -76 43 -28 56
0000a0 41 27 de 1a 98 b2 7f f6 0e 01 cc df cc 4f 7e c3
       65 39 -34 26 -104 -78 127 -10 14 1 -52 -33 -52 79 126 -61
0000b0 08 8a de 2f f7 ac ef 53 9e c6 48 01 9a b6 44 f5
       8 -118 -34 47 -9 -84 -17 83 -98 -58 72 1 -102 -74 68 -11
0000c0 03 f7 3f db 08 f9 f5 fd cd 02 e9 03 29 b6 27 a9
       3 -9 63 -37 8 -7 -11 -3 -51 2 -23 3 41 -74 39 -87
0000d0 1f 2a 01 df 08 23 08 fd ff 07 34 fb 1d 0f 81 ed
       31 42 1 -33 8 35 8 -3 -1 7 52 -5 29 15 -127 -19
0000e0 e3 e7 00 0d 20 00 25 02 d3 fa be 10 ef b4 08 12
       -29 -25 0 13 32 0 37 2 -45 -6 -66 16 -17 -76 8 18
0000f0 24 ce 38 20 22 09 21 ff b2 ef cc 2e 25 05 14 cd
       36 -50 56 32 34 9 33 -1 -78 -17 -52 46 37 5 20 -51

model_1/block_3_expand/Conv2D i1 [48, 1, 1, 8]
000000 4e 17 7f d2 51 7c b9 c9 04 ae 81 fc 2f 16 2b ff
       78 23 127 -46 81 124 -71 -55 4 -82 -127 -4 47 22 43 -1
000010 81 f3 cd de 2c 25 b4 d4 24 3f 7f c3 fe 93 f6 f1
       -127 -13 -51 -34 44 37 -76 -44 36 63 127 -61 -2 -109 -10 -15
000020 81 0f c5 e5 32 0e df bd a8 18 cd ed 05 31 b2 81
       -127 15 -59 -27 50 14 -33 -67 -88 24 -51 -19 5 49 -78 -127
000030 dd 81 81 29 63 0e 0e 2d c8 81 a7 b2 ba bb 14 4f
       -35 -127 -127 41 99 14 14 45 -56 -127 -89 -78 -70 -69 20 79
000040 62 26 f4 05 60 a8 81 0d d7 34 c4 58 c1 d5 7f ea
       98 38 -12 5 96 -88 -127 13 -41 52 -60 88 -63 -43 127 -22
000050 ee 7f 26 3b 75 f6 ed 34 b6 d3 f0 f4 aa 62 7f f2
       -18 127 38 59 117 -10 -19 52 -74 -45 -16 -12 -86 98 127 -14
000060 46 2a 81 30 f9 d9 b7 fa 48 d2 ba 16 11 81 dd e0
       70 42 -127 48 -7 -39 -73 -6 72 -46 -70 22 17 -127 -35 -32
000070 f2 a8 5c 18 7f 99 bc 16 e0 d5 fe 7f 36 54 b0 22
       -14 -88 92 24 127 -103 -68 22 -32 -43 -2 127 54 84 -80 34
000080 7f 24 ce 05 4d 8b 87 e5 3a 7f 37 4e 29 3c 15 ac
       127 36 -50 5 77 -117 -121 -27 58 127 55 78 41 60 21 -84
000090 32 eb fe 00 7f eb 38 e8 0b 7f 22 0b 82 18 15 df
       50 -21 -2 0 127 -21 56 -24 11 127 34 11 -126 24 21 -33
0000a0 d5 1e 4e 81 1c 30 e0 70 d7 41 1e 81 1f 2e 15 73
       -43 30 78 -127 28 48 -32 112 -41 65 30 -127 31 46 21 115
0000b0 bd b6 ac 26 81 78 6d d7 67 37 81 10 10 c9 b8 f8
       -67 -74 -84 38 -127 120 109 -41 103 55 -127 16 16 -55 -72 -8
0000c0 d3 24 fc 04 e0 43 81 65 a5 c9 81 09 be bb 40 5d
       -45 36 -4 4 -32 67 -127 101 -91 -55 -127 9 -66 -69 64 93
0000d0 2c 00 d4 da 66 f1 7f e2 7f c5 16 49 00 22 f0 54
       44 0 -44 -38 102 -15 127 -30 127 -59 22 73 0 34 -16 84
0000e0 3b 39 3b 01 7f c1 3c d4 f1 ed de c2 ad 0f 7f df
       59 57 59 1 127 -63 60 -44 -15 -19 -34 -62 -83 15 127 -33
0000f0 28 81 d5 b9 9f fb 1a c3 02 25 f6 f6 81 09 de f7
       40 -127 -43 -71 -97 -5 26 -61 2 37 -10 -10 -127 9 -34 -9

model_1/block_3_depthwise_BN/FusedBatchNormV3;model_1/block_3_depthwise/depthwise i1 [1, 3, 3, 48]
000000 b5 77 81 7f b9 4b b9 07 b5 c9 45 ae 59 9f b1 d3
       -75 119 -127 127 -71 75 -71 7 -75 -55 69 -82 89 -97 -79 -45
000010 3f 44 5c a3 48 81 62 bf 9a db 46 7f 9a a6 9c 4a
       63 68 92 -93 72 -127 98 -65 -102 -37 70 127 -102 -90 -100 74
000020 4d 9e 5c a2 d4 9b 68 cb fb 91 7b 92 53 42 d4 a3
       77 -98 92 -94 -44 -101 104 -53 -5 -111 123 -110 83 66 -44 -93
000030 81 7b cf 55 c2 7f d3 43 8f 9f 6a 81 61 81 ba ab
       -127 123 -49 85 -62 127 -45 67 -113 -97 106 -127 97 -127 -70 -85
000040 69 53 7f a0 59 8f 7f 92 cb bf 4f 76 2a a0 89 61
       105 83 127 -96 89 -113 127 -110 -53 -65 79 118 42 -96 -119 97
000050 7f 81 7f 98 bb 81 69 d6 b7 5c 7f b0 c9 6e d3 9e
       127 -127 127 -104 -69 -127 105 -42 -73 92 127 -80 -55 110 -45 -98
000060 c2 38 d6 10 ec 55 d2 fd d6 f2 39 b4 39 d1 cb df
       -62 56 -42 16 -20 85 -46 -3 -42 -14 57 -76 57 -47 -53 -33
000070 29 30 3a e1 2e ba 45 c5 c3 d4 15 35 63 a2 b1 2b
       41 48 58 -31 46 -70 69 -59 -61 -44 21 53 99 -94 -79 43
000080 4d a9 42 f6 e4 d4 40 8c 93 dd 3a d9 be 62 d2 a6
       77 -87 66 -10 -28 -44 64 -116 -109 -35 58 -39 -66 98 -46 -90
000090 90 64 c7 7f cd 6d 81 26 b1 a5 45 ae 49 a2 b9 a7
       -112 100 -57 127 -51 109 -127 38 -79 -91 69 -82 73 -94 -71 -89
0000a0 5d 4f b7 81 62 83 52 97 81 b1 5e 7e 8b b8 8d 52
       93 79 -73 -127 98 -125 82 -105 -127 -79 94 126 -117 -72 -115 82
0000b0 55 15 69 97 a1 9d 7a 81 a7 83 46 a8 7f 57 87 81
       85 21 105 -105 -95 -99 122 -127 -89 -125 70 -88 127 87 -121 -127
0000c0 83 7f a0 7d 81 6b 81 7f 81 81 7f 83 7f 8b 81 81
       -125 127 -96 125 -127 107 -127 127 -127 -127 127 -125 127 -117 -127 -127
0000d0 7f 7f a4 97 7f 96 74 81 af 81 7f 7a 25 81 81 3b
       127 127 -92 -105 127 -106 116 -127 -81 -127 127 122 37 -127 -127 59
0000e0 6e 25 7f 81 81 92 7f 8a 86 7f 4e b2 b6 7f 81 82
       110 37 127 -127 -127 -110 127 -118 -122 127 78 -78 -74 127 -127 -126
0000f0 a9 63 97 32 f5 48 be 3f d0 d9 3d c1 30 dd c0 d5
       -87 99 -105 50 -11 72 -66 63 -48 -39 61 -63 48 -35 -64 -43

model_1/block_3_project/Conv2D i1 [16, 1, 1, 48]
000000 24 2d 1a dc 39 39 e2 3a e6 65 f3 2b db 2c f9 31
       36 45 26 -36 57 57 -30 58 -26 101 -13 43 -37 44 -7 49
000010 13 4b 2d c1 b2 6b fe 35 51 29 25 29 cb c9 f5 50
       19 75 45 -63 -78 107 -2 53 81 41 37 41 -53 -55 -11 80
000020 f2 18 b3 2d 38 81 ce 20 18 eb 3c fe f4 c3 c1 f3
       -14 24 -77 45 56 -127 -50 32 24 -21 60 -2 -12 -61 -63 -13
000030 c5 06 ae d6 0a 55 cb 12 ea e6 db 26 3c f8 e6 dd
       -59 6 -82 -42 10 85 -53 18 -22 -26 -37 38 60 -8 -26 -35
000040 e8 e3 ff 10 c9 28 95 d7 c5 d8 2e 3c f5 ef 30 da
       -24 -29 -1 16 -55 40 -107 -41 -59 -40 46 60 -11 -17 48 -38
000050 00 cc e7 35 01 cd 7f d9 da 1e cc f2 22 37 23 0f
       0 -52 -25 53 1 -51 127 -39 -38 30 -52 -14 34 55 35 15
000060 08 ff 3f e8 ed b3 19 16 68 40 bf 13 6e ce 7f 60
       8 -1 63 -24 -19 -77 25 22 104 64 -65 19 110 -50 127 96
000070 be eb e6 1c 4c ac e4 a8 16 da 2c bf 24 1c d0 05
       -66 -21 -26 28 76 -84 -28 -88 22 -38 44 -65 36 28 -48 5
000080 28 e4 32 38 c3 01 ff e0 31 1e 43 f0 16 a4 62 ce
       40 -28 50 56 -61 1 -1 -32 49 30 67 -16 22 -92 98 -50
000090 2b fb ec f6 27 6b 17 f0 2f c9 11 ec d7 f5 11 35
       43 -5 -20 -10 39 107 23 -16 47 -55 17 -20 -41 -11 17 53
0000a0 e1 b9 2e 85 f5 fb e1 f3 d6 54 7f 3f ee d3 17 2c
       -31 -71 46 -123 -11 -5 -31 -13 -42 84 127 63 -18 -45 23 44
0000b0 3f df 5b 23 df bc 04 17 20 07 ec 0a 1f 13 f0 e3
       63 -33 91 35 -33 -68 4 23 32 7 -20 10 31 19 -16 -29
0000c0 58 03 0e d0 6c 63 2a 0f 40 f5 a1 1a 2a e8 02 f3
       88 3 14 -48 108 99 42 15 64 -11 -95 26 42 -24 2 -13
0000d0 b1 92 f4 96 ef 15 ec e1 af 7f a0 7d cd ce 21 59
       -79 -110 -12 -106 -17 21 -20 -31 -81 127 -96 125 -51 -50 33 89
0000e0 30 d9 16 d4 fd 10 e9 10 d7 ee 05 2b ce 6b df ce
       48 -39 22 -44 -3 16 -23 16 -41 -18 5 43 -50 107 -33 -50
0000f0 02 f1 c5 fd ee 35 15 e5 3f 38 22 5a 38 eb 2e fb
       2 -15 -59 -3 -18 53 21 -27 63 56 34 90 56 -21 46 -5

model_1/block_4_expand/Conv2D i1 [96, 1, 1, 16]
000000 23 f7 07 49 81 cd 57 32 38 61 e4 39 04 fc 27 51
       35 -9 7 73 -127 -51 87 50 56 97 -28 57 4 -4 39 81
000010 e0 1f a5 03 7f 5f 00 f0 d1 0f d0 26 ce 5e ac f9
       -32 31 -91 3 127 95 0 -16 -47 15 -48 38 -50 94 -84 -7
000020 f2 36 40 f6 3e 54 f6 27 1f 06 23 ed 3b 81 eb 04
       -14 54 64 -10 62 84 -10 39 31 6 35 -19 59 -127 -21 4
000030 7f e2 22 09 13 18 f3 fe 3c 29 c7 f2 df 1a fa 2a
       127 -30 34 9 19 24 -13 -2 60 41 -57 -14 -33 26 -6 42
000040 c4 02 05 12 8c f6 ba d3 04 23 0e cc f2 38 f0 7f
       -60 2 5 18 -116 -10 -70 -45 4 35 14 -52 -14 56 -16 127
000050 b5 01 21 02 7f 16 0f 15 ac 1e e3 09 e4 3d 97 ea
       -75 1 33 2 127 22 15 21 -84 30 -29 9 -28 61 -105 -22
000060 81 16 f2 1c eb b0 3c 14 1c e7 c2 1b 07 fe e4 03
       -127 22 -14 28 -21 -80 60 20 28 -25 -62 27 7 -2 -28 3
000070 de 7f 35 8f 4f 33 75 01 2c 19 05 14 49 33 ee 05
       -34 127 53 -113 79 51 117 1 44 25 5 20 73 51 -18 5
000080 d0 fd 81 2c e9 68 a1 f1 38 08 7b 0d 4c 3a b5 1a
       -48 -3 -127 44 -23 104 -95 -15 56 8 123 13 76 58 -75 26
000090 ee 81 d8 67 ca b0 f7 38 47 32 20 50 a2 f5 07 df
       -18 -127 -40 103 -54 -80 -9 56 71 50 32 80 -94 -11 7 -33
0000a0 ba c6 94 0d b2 7f 14 eb 27 e1 40 c4 20 7b b1 3e
       -70 -58 -108 13 -78 127 20 -21 39 -31 64 -60 32 123 -79 62
0000b0 df a7 f0 20 f0 35 2a fd 08 fa 22 b1 f7 7f ab 5a
       -33 -89 -16 32 -16 53 42 -3 8 -6 34 -79 -9 127 -85 90
0000c0 ff 97 bf 66 c4 81 ef 3b 48 5c c2 4d 05 ab e7 f1
       -1 -105 -65 102 -60 -127 -17 59 72 92 -62 77 5 -85 -25 -15
0000d0 c5 f2 d6 fc f6 0a 29 09 e7 7f f8 ee 31 22 0c 01
       -59 -14 -42 -4 -10 10 41 9 -25 127 -8 -18 49 34 12 1
0000e0 81 de ca c0 e8 69 cf cf 5e b4 49 df 51 c8 9a b5
       -127 -34 -54 -64 -24 105 -49 -49 94 -76 73 -33 81 -56 -102 -75
0000f0 ec 81 65 c8 dc df f8 2b 0f e6 95 de 4d e6 d7 d3
       -20 -127 101 -56 -36 -33 -8 43 15 -26 -107 -34 77 -26 -41 -45

model_1/block_4_depthwise_BN/FusedBatchNormV3;model_1/block_4_depthwise/depthwise;model_1/block_6_expand/Conv2D i1 [1, 3, 3, 96]
000000 0b eb 2b f1 65 08 54 e8 03 fa e6 d4 94 1e ef 01
       11 -21 43 -15 101 8 84 -24 3 -6 -26 -44 -108 30 -17 1
000010 e6 fc fc 09 f9 1e fc 2b 06 f7 d9 03 0f 14 1c 16
       -26 -4 -4 9 -7 30 -4 43 6 -9 -39 3 15 20 28 22
000020 14 03 0d cd 07 81 dc 05 07 e7 27 cd d9 25 a5 e8
       20 3 13 -51 7 -127 -36 5 7 -25 39 -51 -39 37 -91 -24
000030 e2 17 ff 27 a3 1a 15 f4 ca ea 05 f9 ed f2 f9 d9
       -30 23 -1 39 -93 26 21 -12 -54 -22 5 -7 -19 -14 -7 -39
000040 d7 eb ce cd dc 31 14 e2 06 02 f7 fc cb 3d 7f cf
       -41 -21 -50 -51 -36 49 20 -30 6 2 -9 -4 -53 61 127 -49
000050 81 04 bd e0 d5 ef 07 00 bd e6 30 c9 07 24 ca 01
       -127 4 -67 -32 -43 -17 7 0 -67 -26 48 -55 7 36 -54 1
000060 46 2b 7f b2 df 06 7f c2 03 db d1 12 b3 11 a7 55
       70 43 127 -78 -33 6 127 -62 3 -37 -47 18 -77 17 -89 85
000070 f3 4c 6a f9 0a 7f 42 79 2b 1e 09 64 7f 44 7f db
       -13 76 106 -7 10 127 66 121 43 30 9 100 127 68 127 -37
000080 d4 ed a5 d3 d8 b8 7f a8 f1 81 ee c5 30 e0 d8 05
       -44 -19 -91 -45 -40 -72 127 -88 -15 -127 -18 -59 48 -32 -40 5
000090 27 0a 1b 7f 9d 55 90 eb 91 f5 f9 1e e6 8d 81 bd
       39 10 27 127 -99 85 -112 -21 -111 -11 -7 30 -26 -115 -127 -67
0000a0 9d 06 fa c2 f8 18 e6 48 81 01 fb ed 81 df f4 81
       -99 6 -6 -62 -8 24 -26 72 -127 1 -5 -19 -127 -33 -12 -127
0000b0 94 00 ed be 7f 3a d6 06 81 fa 1e df 0c 7f b2 b5
       -108 0 -19 -66 127 58 -42 6 -127 -6 30 -33 12 127 -78 -75
0000c0 24 f8 21 fe 4f 08 3e d2 ef 0c e1 16 d8 12 f1 f1
       36 -8 33 -2 79 8 62 -46 -17 12 -31 22 -40 18 -15 -15
0000d0 e8 f8 3f f4 f9 08 0b 23 0b 02 03 f1 11 11 0b 19
       -24 -8 63 -12 -7 8 11 35 11 2 3 -15 17 17 11 25
0000e0 c8 02 f9 2e 0a a8 e7 1d 07 fc 04 e4 d1 db a9 ff
       -56 2 -7 46 10 -88 -25 29 7 -4 4 -28 -47 -37 -87 -1
0000f0 f6 10 f8 13 f1 12 01 ed 2f df 0b e8 ee f5 bc e7
       -10 16 -8 19 -15 18 1 -19 47 -33 11 -24 -18 -11 -68 -25

model_1/block_4_project/Conv2D i1 [16, 1, 1, 96]
000000 26 06 1c 14 fa aa 09 1b d4 9e 09 0c 49 c5 28 27
       38 6 28 20 -6 -86 9 27 -44 -98 9 12 73 -59 40 39
000010 aa e3 4c 07 6c 05 99 f1 f1 59 6a 58 fd 4e 48 d2
       -86 -29 76 7 108 5 -103 -15 -15 89 106 88 -3 78 72 -46
000020 03 e5 ec d5 1c 1e 11 07 66 2f 0d e4 16 e9 10 c2
       3 -27 -20 -43 28 30 17 7 102 47 13 -28 22 -23 16 -62
000030 48 c9 5d e8 b5 ff 1d 11 d3 bd fd 30 e6 0a 8e e8
       72 -55 93 -24 -75 -1 29 17 -45 -67 -3 48 -26 10 -114 -24
000040 07 fa 64 18 fd fc 12 06 11 2b eb 1f 40 ed 43 2a
       7 -6 100 24 -3 -4 18 6 17 43 -21 31 64 -19 67 42
000050 fc 2b 09 29 c3 f9 fd 3d 18 06 a6 e9 24 ea 7f 5c
       -4 43 9 41 -61 -7 -3 61 24 6 -90 -23 36 -22 127 92
000060 38 08 cb fb 20 e2 6c b0 a7 eb aa da f4 d3 df d3
       56 8 -53 -5 32 -30 108 -80 -89 -21 -86 -38 -12 -45 -33 -45
000070 f2 e5 f4 dd de 81 5f eb f0 0f fe 4b d6 0d fe 01
       -14 -27 -12 -35 -34 -127 95 -21 -16 15 -2 75 -42 13 -2 1
000080 c8 16 ff ec e6 22 e4 69 23 1e e8 c8 2c b5 fd f7
       -56 22 -1 -20 -26 34 -28 105 35 30 -24 -56 44 -75 -3 -9
000090 b9 1b 40 a2 c8 23 35 1a 15 05 aa 0c db e3 c7 dc
       -71 27 64 -94 -56 35 53 26 21 5 -86 12 -37 -29 -57 -36
0000a0 0e f2 70 01 bb 84 ff fe 1c 32 d8 24 c7 fa 71 d4
       14 -14 112 1 -69 -124 -1 -2 28 50 -40 36 -57 -6 113 -44
0000b0 3b e1 46 c9 d9 c7 f8 09 ff d2 2c ea 4d b3 dd 51
       59 -31 70 -55 -39 -57 -8 9 -1 -46 44 -22 77 -77 -35 81
0000c0 12 fe 08 f0 2c 37 d3 21 df 2c 09 e9 23 00 30 12
       18 -2 8 -16 44 55 -45 33 -33 44 9 -23 35 0 48 18
0000d0 18 d7 81 ed ec ce f9 04 0d f5 dc 10 d4 f5 f3 41
       24 -41 -127 -19 -20 -50 -7 4 13 -11 -36 16 -44 -11 -13 65
0000e0 f0 e0 fa 04 e7 25 f2 e5 34 12 17 0f 0e 2e 01 04
       -16 -32 -6 4 -25 37 -14 -27 52 18 23 15 14 46 1 4
0000f0 ae e5 ed fc e6 26 06 dc 1e 24 36 1a f4 02 01 30
       -82 -27 -19 -4 -26 38 6 -36 30 36 54 26 -12 2 1 48

model_1/block_5_expand/Conv2D i1 [96, 1, 1, 16]
000000 c7 2a e4 17 d6 bc b4 c7 13 c8 15 ca 37 9e 26 81
       -57 42 -28 23 -42 -68 -76 -57 19 -56 21 -54 55 -98 38 -127
000010 86 18 9e 92 e1 01 1c 3c f4 ff 5b b4 4a 79 02 7f
       -122 24 -98 -110 -31 1 28 60 -12 -1 91 -76 74 121 2 127
000020 e7 ef df f6 e6 c3 30 e8 97 7f 1c 01 4e 20 a7 6d
       -25 -17 -33 -10 -26 -61 48 -24 -105 127 28 1 78 32 -89 109
000030 d7 c2 0e cc ae 04 c8 81 f4 00 37 98 b1 c9 96 ea
       -41 -62 14 -52 -82 4 -56 -127 -12 0 55 -104 -79 -55 -106 -22
000040 22 f9 f0 12 cd f5 81 1b 06 43 18 26 26 2f c5 97
       34 -7 -16 18 -51 -11 -127 27 6 67 24 38 38 47 -59 -105
000050 b0 1b c2 e4 06 f3 ff 95 34 f1 07 e8 16 b8 cb 81
       -80 27 -62 -28 6 -13 -1 -107 52 -15 7 -24 22 -72 -53 -127
000060 f8 e4 ef 13 a7 43 18 d6 03 ee 62 0d 05 ef 81 24
       -8 -28 -17 19 -89 67 24 -42 3 -18 98 13 5 -17 -127 36
000070 e8 70 5f 81 2a 4f f9 c4 20 26 bf ef 1d e7 17 4f
       -24 112 95 -127 42 79 -7 -60 32 38 -65 -17 29 -25 23 79
000080 b8 f0 24 fa 57 eb 7c 7f cc f8 f3 a8 20 2f b6 e9
       -72 -16 36 -6 87 -21 124 127 -52 -8 -13 -88 32 47 -74 -23
000090 0b 2b 7f 16 94 ec ab 9f 3a 13 6a 21 e4 b3 47 d8
       11 43 127 22 -108 -20 -85 -97 58 19 106 33 -28 -77 71 -40
0000a0 f4 81 34 b7 9b 1a 14 1b ec a9 f1 14 e1 41 8e 09
       -12 -127 52 -73 -101 26 20 27 -20 -87 -15 20 -31 65 -114 9
0000b0 64 e0 17 38 a4 02 27 e1 7f 5b a9 19 06 b7 de 4a
       100 -32 23 56 -92 2 39 -31 127 91 -87 25 6 -73 -34 74
0000c0 c1 cc 7f 18 45 fd 30 48 3b 00 55 45 f2 22 93 35
       -63 -52 127 24 69 -3 48 72 59 0 85 69 -14 34 -109 53
0000d0 08 b1 39 60 2f 0a 7f 4b bd 1e e4 04 de 6c 65 9a
       8 -79 57 96 47 10 127 75 -67 30 -28 4 -34 108 101 -102
0000e0 78 ae 6c 09 5c 42 6a 53 5e 7f 3d 29 67 e0 34 cc
       120 -82 108 9 92 66 106 83 94 127 61 41 103 -32 52 -52
0000f0 e3 7f fe d4 16 61 cd 42 ba fa e0 ed d2 62 ef ef
       -29 127 -2 -44 22 97 -51 66 -70 -6 -32 -19 -46 98 -17 -17

model_1/block_5_depthwise_BN/FusedBatchNormV3;model_1/block_5_depthwise/depthwise;model_1/block_6_expand/Conv2D i1 [1, 3, 3, 96]
000000 3a 47 f6 09 cf 12 20 23 37 c8 ed 3e e3 ed 49 f3
       58 71 -10 9 -49 18 32 35 55 -56 -19 62 -29 -19 73 -13
000010 81 0d 09 0d 2d 1f 38 65 0e e3 e3 02 e4 0b 08 df
       -127 13 9 13 45 31 56 101 14 -29 -29 2 -28 11 8 -33
000020 b3 ff fe 7d ff 24 fe 05 21 cf 2e 40 95 b5 f4 d4
       -77 -1 -2 125 -1 36 -2 5 33 -49 46 64 -107 -75 -12 -44
000030 df 93 c2 b3 b3 4e f1 fc b3 b3 f5 99 81 e8 94 10
       -33 -109 -62 -77 -77 78 -15 -4 -77 -77 -11 -103 -127 -24 -108 16
000040 d8 3c 45 ff d1 4c 1c f5 e4 13 26 fe 44 c8 81 0c
       -40 60 69 -1 -47 76 28 -11 -28 19 38 -2 68 -56 -127 12
000050 0d a3 3f df 88 d7 ec 20 81 26 81 2e 48 f3 64 16
       13 -93 63 -33 -120 -41 -20 32 -127 38 -127 46 72 -13 100 22
000060 e3 de cf 3a d9 51 e4 f8 4a 30 a1 4c e2 c9 81 7f
       -29 -34 -49 58 -39 81 -28 -8 74 48 -95 76 -30 -55 -127 127
000070 bb 1e 18 3a 7f fe 4e 7f 10 0b 20 45 03 7f ef 81
       -69 30 24 58 127 -2 78 127 16 11 32 69 3 127 -17 -127
000080 37 4c 21 51 2a 53 e3 a0 7f fb 7f 7f 81 d7 7f a1
       55 76 33 81 42 83 -29 -96 127 -5 127 127 -127 -41 127 -95
000090 fc 84 a8 9c ef 7f db a2 01 2b bc c6 bc 85 c9 59
       -4 -124 -88 -100 -17 127 -37 -94 1 43 -68 -58 -68 -123 -55 89
0000a0 e7 4c 7f f9 01 7f 78 f4 b4 28 c9 81 55 b2 fe 7f
       -25 76 127 -7 1 127 120 -12 -76 40 -55 -127 85 -78 -2 127
0000b0 f9 cd 7f b1 9c eb 6d 5a 2c 7f b8 ea 7f f3 7f 2e
       -7 -51 127 -79 -100 -21 109 90 44 127 -72 -22 127 -13 127 46
0000c0 26 9d 04 1a ed e7 fc 2b 26 41 dc 1f fb 16 45 cc
       38 -99 4 26 -19 -25 -4 43 38 65 -36 31 -5 22 69 -52
0000d0 ef 1d 11 00 09 23 36 59 12 a7 2c 21 f9 fb ea ce
       -17 29 17 0 9 35 54 89 18 -89 44 33 -7 -5 -22 -50
0000e0 cd c4 ff 68 fb 01 fe 18 0f 2b 03 20 af 81 e0 d3
       -51 -60 -1 104 -5 1 -2 24 15 43 3 32 -81 -127 -32 -45
0000f0 2a 90 f4 d5 dc 0b f5 21 3e ba f9 ba a3 f1 8c fd
       42 -112 -12 -43 -36 11 -11 33 62 -70 -7 -70 -93 -15 -116 -3

model_1/block_5_project/Conv2D i1 [16, 1, 1, 96]
000000 92 10 56 ea b7 fb d1 fd cc ff 0a f6 05 2f 2b d1
       -110 16 86 -22 -73 -5 -47 -3 -52 -1 10 -10 5 47 43 -47
000010 fd d8 56 0b 1e e2 6e 4a 37 f9 fb 11 bb 81 a0 07
       -3 -40 86 11 30 -30 110 74 55 -7 -5 17 -69 -127 -96 7
000020 c9 db 39 fb f7 fb f1 3b 08 f3 8f 0d 83 e1 fb 5c
       -55 -37 57 -5 -9 -5 -15 59 8 -13 -113 13 -125 -31 -5 92
000030 f3 d9 d3 ef e6 f3 30 dc a9 fc ec 47 41 33 fe 04
       -13 -39 -45 -17 -26 -13 48 -36 -87 -4 -20 71 65 51 -2 4
000040 c0 dd df 14 cb d7 1f f7 1b f0 ca d2 c6 08 ed 08
       -64 -35 -33 20 -53 -41 31 -9 27 -16 -54 -46 -58 8 -19 8
000050 db 74 4b d3 16 3b 03 49 01 f4 e3 b7 d6 e8 9f 1d
       -37 116 75 -45 22 59 3 73 1 -12 -29 -73 -42 -24 -97 29
000060 00 07 3b c7 a9 e2 fe 1e d0 0d 0b dc f1 ec d0 cf
       0 7 59 -57 -87 -30 -2 30 -48 13 11 -36 -15 -20 -48 -49
000070 f0 ef a4 1b 0e a4 16 1a ff bd dd cc 4a 91 69 9e
       -16 -17 -92 27 14 -92 22 26 -1 -67 -35 -52 74 -111 105 -98
000080 29 17 dd 14 3d 59 fa cb 33 11 08 c0 0d 42 90 b9
       41 23 -35 20 61 89 -6 -53 51 17 8 -64 13 66 -112 -71
000090 98 c5 fd da 11 e0 ec 18 eb f6 e1 27 56 40 df 8e
       -104 -59 -3 -38 17 -32 -20 24 -21 -10 -31 39 86 64 -33 -114
0000a0 c3 f6 9f 09 1c ee a6 d9 c5 d4 0e 97 f2 04 3d c2
       -61 -10 -97 9 28 -18 -90 -39 -59 -44 14 -105 -14 4 61 -62
0000b0 d0 c2 81 e2 29 b2 c4 1a 86 d2 88 33 24 31 ba 33
       -48 -62 -127 -30 41 -78 -60 26 -122 -46 -120 51 36 49 -70 51
0000c0 42 f2 02 0a 1d c7 29 fc 0c f8 06 fc da e9 fb e3
       66 -14 2 10 29 -57 41 -4 12 -8 6 -4 -38 -23 -5 -29
0000d0 aa d9 d6 2b 00 cd cf 2b fa c2 fe fd cd 34 d9 5d
       -86 -39 -42 43 0 -51 -49 43 -6 -62 -2 -3 -51 52 -39 93
0000e0 cf 6f f0 4b d4 ea e1 e3 81 3e 29 34 b9 13 ea f5
       -49 111 -16 75 -44 -22 -31 -29 -127 62 41 52 -71 19 -22 -11
0000f0 23 14 dd cf 56 d3 d6 48 22 f2 24 d7 f3 1f ee 09
       35 20 -35 -49 86 -45 -42 72 34 -14 36 -41 -13 31 -18 9

model_1/block_6_expand/Conv2D i1 [96, 1, 1, 16]
000000 18 7f ae 30 26 d3 54 38 cd f6 16 9c 5b 6b a3 2f
       24 127 -82 48 38 -45 84 56 -51 -10 22 -100 91 107 -93 47
000010 cc 1c b1 dc fe 46 19 81 08 e5 eb d1 f6 ce aa 23
       -52 28 -79 -36 -2 70 25 -127 8 -27 -21 -47 -10 -50 -86 35
000020 d8 ec 23 53 19 38 88 7f e4 0e 59 cf f1 a8 b7 66
       -40 -20 35 83 25 56 -120 127 -28 14 89 -49 -15 -88 -73 102
000030 62 ad 61 f8 04 ee dd 7f d6 31 3c 38 00 47 ef 10
       98 -83 97 -8 4 -18 -35 127 -42 49 60 56 0 71 -17 16
000040 d3 13 fe 1a ac 09 d3 88 f6 12 1c eb 31 10 52 7f
       -45 19 -2 26 -84 9 -45 -120 -10 18 28 -21 49 16 82 127
000050 7f 0c e3 e0 a0 14 14 52 1a fb 49 68 72 1e ae f9
       127 12 -29 -32 -96 20 20 82 26 -5 73 104 114 30 -82 -7
000060 45 ea bb d0 9c fa 0f a7 bb af cf 13 7f 3a 7e 06
       69 -22 -69 -48 -100 -6 15 -89 -69 -81 -49 19 127 58 126 6
000070 b0 28 d5 ad 10 da b5 fe a0 49 c0 cf 81 cf 04 66
       -80 40 -43 -83 16 -38 -75 -2 -96 73 -64 -49 -127 -49 4 102
000080 4b 34 4a 11 42 1a 48 12 31 da 31 14 81 dc a0 1e
       75 52 74 17 66 26 72 18 49 -38 49 20 -127 -36 -96 30
000090 f7 42 1d de dd eb 0f f3 ec 14 d3 06 21 7f 17 0d
       -9 66 29 -34 -35 -21 15 -13 -20 20 -45 6 33 127 23 13
0000a0 53 1a dd 39 da d2 26 e9 b6 e3 b3 81 a3 b5 14 56
       83 26 -35 57 -38 -46 38 -23 -74 -29 -77 -127 -93 -75 20 86
0000b0 2f 1e 2c 04 f0 e9 0f 61 b4 1b f2 06 f8 04 22 7f
       47 30 44 4 -16 -23 15 97 -76 27 -14 6 -8 4 34 127
0000c0 a8 d7 1d fc 13 03 7f 12 bf 24 0e f5 ec 59 ed 63
       -88 -41 29 -4 19 3 127 18 -65 36 14 -11 -20 89 -19 99
0000d0 cc 1f 31 f1 7f 4c 4c 72 e8 3f ad fb e6 46 d3 bf
       -52 31 49 -15 127 76 76 114 -24 63 -83 -5 -26 70 -45 -65
0000e0 8f 7f ff e8 f3 13 2a 02 ed 2e 4c 02 b8 fd c4 37
       -113 127 -1 -24 -13 19 42 2 -19 46 76 2 -72 -3 -60 55
0000f0 d6 f9 81 c3 53 d5 9f d5 e2 f7 f1 c0 fc a9 cc 2d
       -42 -7 -127 -61 83 -43 -97 -43 -30 -9 -15 -64 -4 -87 -52 45

model_1/head/Conv2D i1 [32, 1, 1, 96]
000000 10 30 17 a8 ac 04 f9 45 e5 dc 88 a8 90 6d c2 35
       16 48 23 -88 -84 4 -7 69 -27 -36 -120 -88 -112 109 -62 53
000010 1b 51 15 f8 d1 91 d0 0d 52 96 f8 61 2d a4 46 fb
       27 81 21 -8 -47 -111 -48 13 82 -106 -8 97 45 -92 70 -5
000020 a8 53 13 bf de 05 9e e9 99 c9 5f b4 3c e0 a9 5d
       -88 83 19 -65 -34 5 -98 -23 -103 -55 95 -76 60 -32 -87 93
000030 8c 62 a1 0b e1 4b 04 2f b1 a5 f8 1c e8 54 1c 87
       -116 98 -95 11 -31 75 4 47 -79 -91 -8 28 -24 84 28 -121
000040 40 81 95 2b 2d a0 e9 72 be 1d cd 61 c2 bd da e2
       64 -127 -107 43 45 -96 -23 114 -66 29 -51 97 -62 -67 -38 -30
000050 88 2f 3c 0c ca ac c2 c4 15 24 14 35 a3 a0 c7 27
       -120 47 60 12 -54 -84 -62 -60 21 36 20 53 -93 -96 -57 39
000060 5c 10 52 34 17 eb ed 69 3e 31 d5 57 b0 b0 24 ca
       92 16 82 52 23 -21 -19 105 62 49 -43 87 -80 -80 36 -54
000070 f7 fb 1f cf 6c 4f ab c4 47 01 01 b5 58 3a 08 f0
       -9 -5 31 -49 108 79 -85 -60 71 1 1 -75 88 58 8 -16
000080 b2 d2 b5 c5 20 ca e9 22 2d 50 e3 19 44 25 f6 36
       -78 -46 -75 -59 32 -54 -23 34 45 80 -29 25 68 37 -10 54
000090 1f a0 0a c9 fc b5 e9 b1 3b 38 62 23 3f ca f0 dd
       31 -96 10 -55 -4 -75 -23 -79 59 56 98 35 63 -54 -16 -35
0000a0 7f 0a 01 55 58 75 42 6e fe 0b 34 17 49 c5 7e e1
       127 10 1 85 88 117 66 110 -2 11 52 23 73 -59 126 -31
0000b0 c6 76 bd 03 2a 23 af f4 b6 c3 41 ff e5 19 22 f3
       -58 118 -67 3 42 35 -81 -12 -74 -61 65 -1 -27 25 34 -13
0000c0 fa c9 b1 97 f6 07 4c 00 fc c6 d6 cf 29 3b c1 a4
       -6 -55 -79 -105 -10 7 76 0 -4 -58 -42 -49 41 59 -63 -92
0000d0 a4 1f c5 24 b2 be 2b 29 d6 30 d9 e4 e6 d6 c2 1a
       -92 31 -59 36 -78 -66 43 41 -42 48 -39 -28 -26 -42 -62 26
0000e0 23 c3 29 06 b2 1c b0 4e 29 f7 7f 44 ca f8 20 05
       35 -61 41 6 -78 28 -80 78 41 -9 127 68 -54 -8 32 5
0000f0 ff d9 2c 57 c3 ad 02 bb d2 1b 50 69 61 44 ca 62
       -1 -39 44 87 -61 -83 2 -69 -46 27 80 105 97 68 -54 98

model_1/logits/Conv2D i1 [7, 1, 1, 32]
000000 ee d7 26 cf 2d 24 02 5a e9 c3 19 c0 f7 f2 74 52
       -18 -41 38 -49 45 36 2 90 -23 -61 25 -64 -9 -14 116 82
000010 e7 37 4e 1c f4 ec 1f 11 e0 7f d7 02 dc 91 18 0a
       -25 55 78 28 -12 -20 31 17 -32 127 -41 2 -36 -111 24 10
000020 64 6e bb cc 23 64 f2 2d 3f 07 33 65 54 ba 9f 65
       100 110 -69 -52 35 100 -14 45 63 7 51 101 84 -70 -97 101
000030 e7 47 81 fe 22 e9 09 09 2d b0 ff 90 e5 b0 4f 44
       -25 71 -127 -2 34 -23 9 9 45 -80 -1 -112 -27 -80 79 68
000040 f8 0b 1b 30 ea 53 4d 08 93 14 fb e7 f5 63 d6 13
       -8 11 27 48 -22 83 77 8 -109 20 -5 -25 -11 99 -42 19
000050 ac cf 81 33 d9 af c2 2a 4e d2 1e bd 0f 0d aa 21
       -84 -49 -127 51 -39 -81 -62 42 78 -46 30 -67 15 13 -86 33
000060 65 08 38 41 47 11 fd f6 45 52 be 07 47 e1 f9 2e
       101 8 56 65 71 17 -3 -10 69 82 -66 7 71 -31 -7 46
000070 bf 50 a8 38 b9 e8 ac ba 49 81 64 f4 b5 f8 b6 69
       -65 80 -88 56 -71 -24 -84 -70 73 -127 100 -12 -75 -8 -74 105
000080 ce 7f a5 ca 9d 5e 97 a1 35 1a a5 fb 0c 42 85 ba
       -50 127 -91 -54 -99 94 -105 -95 53 26 -91 -5 12 66 -123 -70
000090 29 ec e6 fd 90 bf 98 fa dd cd 78 ab 28 93 f4 23
       41 -20 -26 -3 -112 -65 -104 -6 -35 -51 120 -85 40 -109 -12 35
0000a0 e2 1f d6 f6 d7 1b 1b 81 25 0c 15 f5 25 2c b5 f3
       -30 31 -42 -10 -41 27 27 -127 37 12 21 -11 37 44 -75 -13
0000b0 e5 ef 20 da f8 f3 db 03 0a 0e 22 c7 eb e5 f1 df
       -27 -17 32 -38 -8 -13 -37 3 10 14 34 -57 -21 -27 -15 -33
0000c0 d5 1d a0 01 11 d1 c4 9a 0b d9 46 ec c9 a4 af 14
       -43 29 -96 1 17 -47 -60 -102 11 -39 70 -20 -55 -92 -81 20
0000d0 51 e0 b0 f0 ea 81 51 44 60 d4 3e 18 08 e2 db 5f
       81 -32 -80 -16 -22 -127 81 68 96 -44 62 24 8 -30 -37 95
