smile_detector/trained.tflite (tflite, 247192 bytes, 3 tensors)

sequential/conv2d/Conv2D i1 [32, 3, 3, 1]
000000 9f 55 4b fd d3 92 7f 05 b2 10 20 e1 7f ef 82 6a
       -97 85 75 -3 -45 -110 127 5 -78 16 32 -31 127 -17 -126 106
000010 9f 19 20 92 e9 61 31 b8 d8 a6 7f 90 7f eb 23 29
       -97 25 32 -110 -23 97 49 -72 -40 -90 127 -112 127 -21 35 41
000020 1b 6d c7 01 fa 65 81 04 1d 13 21 73 6b 42 01 3d
       27 109 -57 1 -6 101 -127 4 29 19 33 115 107 66 1 61
000030 7f 3e f5 06 cc 81 a7 ee a9 26 4d ca ea 7f f1 c8
       127 62 -11 6 -52 -127 -89 -18 -87 38 77 -54 -22 127 -15 -56
000040 3b e0 24 a5 6f 7f 74 3d 2c ab ae 7e ef 37 7f b9
       59 -32 36 -91 111 127 116 61 44 -85 -82 126 -17 55 127 -71
000050 df f6 ff 60 36 17 48 4c 7f b7 81 82 b6 25 f3 0d
       -33 -10 -1 96 54 23 72 76 127 -73 -127 -126 -74 37 -13 13
000060 cd e6 91 72 87 29 7f fb 67 fb 3c b9 6a a0 36 7e
       -51 -26 -111 114 -121 41 127 -5 103 -5 60 -71 106 -96 54 126
000070 89 f8 69 81 cb 0a e1 81 f5 70 27 b7 3a f6 c0 f9
       -119 -8 105 -127 -53 10 -31 -127 -11 112 39 -73 58 -10 -64 -7
000080 7f de e8 1b 9f b0 79 af a6 3a 7f 12 ec 52 62 a8
       127 -34 -24 27 -97 -80 121 -81 -90 58 127 18 -20 82 98 -88
000090 bd 3c fe f1 e4 07 a3 c9 7f 9f 15 2d bc 3d 81 f9
       -67 60 -2 -15 -28 7 -93 -55 127 -97 21 45 -68 61 -127 -7
0000a0 d2 a5 a7 81 fe d3 e1 db 09 9d db d3 f2 1a 67 81
       -46 -91 -89 -127 -2 -45 -31 -37 9 -99 -37 -45 -14 26 103 -127
0000b0 69 dc 0c d3 9a 10 1e f6 d8 07 f0 ef 81 19 cf f4
       105 -36 12 -45 -102 16 30 -10 -40 7 -16 -17 -127 25 -49 -12
0000c0 bf c4 53 7f 78 ce 91 7f d4 36 01 0c a8 8b f1 d1
       -65 -60 83 127 120 -50 -111 127 -44 54 1 12 -88 -117 -15 -47
0000d0 cb 81 f5 5c 73 b6 9f df 3e 44 49 81 ba 1e f7 fd
       -53 -127 -11 92 115 -74 -97 -33 62 68 73 -127 -70 30 -9 -3
0000e0 2c a9 81 82 59 e6 91 09 bd ae 74 6e 7f 94 56 4e
       44 -87 -127 -126 89 -26 -111 9 -67 -82 116 110 127 -108 86 78
0000f0 9d 20 4b 7f 5d 14 a8 c3 9f e0 10 0a 52 31 7f b4
       -99 32 75 127 93 20 -88 -61 -97 -32 16 10 82 49 127 -76

sequential/conv2d_1/Conv2D i1 [16, 3, 3, 32]
000000 ae d5 b9 61 d0 98 5e c5 5e e7 9c e1 d8 8d 26 c1
       -82 -43 -71 97 -48 -104 94 -59 94 -25 -100 -31 -40 -115 38 -63
000010 45 b1 59 49 1e 5d 52 08 5e e0 b2 56 fa c7 ab 57
       69 -79 89 73 30 93 82 8 94 -32 -78 86 -6 -57 -85 87
000020 fd 02 60 01 c6 c4 bb 8b 9d 26 96 24 57 44 1b 1f
       -3 2 96 1 -58 -60 -69 -117 -99 38 -106 36 87 68 27 31
000030 07 f8 9b 65 28 9f 0c 4c 22 0c b9 f6 fd b6 81 9e
       7 -8 -101 101 40 -97 12 76 34 12 -71 -10 -3 -74 -127 -98
000040 90 f5 a5 0a c1 24 19 67 a2 4b 55 3f ce e4 b5 31
       -112 -11 -91 10 -63 36 25 103 -94 75 85 63 -50 -28 -75 49
000050 36 b2 1c 01 0f 42 a1 34 29 a6 23 92 a8 b8 a2 0a
       54 -78 28 1 15 66 -95 52 41 -90 35 -110 -88 -72 -94 10
000060 40 b8 c8 64 39 d9 34 84 b8 e4 a3 ce 9e bc 3f 47
       64 -72 -56 100 57 -39 52 -124 -72 -28 -93 -50 -98 -68 63 71
000070 eb 51 cb 3b 6b 57 13 ee 2a 0e f4 24 24 51 1c 96
       -21 81 -53 59 107 87 19 -18 42 14 -12 36 36 81 28 -106
000080 15 85 31 cb ff 0e 63 00 ff 57 eb b3 9c ff 4b 47
       21 -123 49 -53 -1 14 99 0 -1 87 -21 -77 -100 -1 75 71
000090 63 b5 e8 1a 92 2c 13 f7 9e cf 88 97 b1 bb f0 d1
       99 -75 -24 26 -110 44 19 -9 -98 -49 -120 -105 -79 -69 -16 -47
0000a0 2a 03 e0 29 2e 3d 0d 8f 9b 41 5d 48 cb c6 eb 56
       42 3 -32 41 46 61 13 -113 -101 65 93 72 -53 -58 -21 86
0000b0 85 0b 3d ea 92 d8 05 3b 2b fd 43 41 ac 01 da 18
       -123 11 61 -22 -110 -40 5 59 43 -3 67 65 -84 1 -38 24
0000c0 f6 dc ad b0 92 4d 1f 39 82 c9 70 c0 93 a4 ac f3
       -10 -36 -83 -80 -110 77 31 57 -126 -55 112 -64 -109 -92 -84 -13
0000d0 11 e5 41 2c 23 de 0c e0 8c da de 00 3a d2 82 94
       17 -27 65 44 35 -34 12 -32 -116 -38 -34 0 58 -46 -126 -108
0000e0 de a2 bd c0 f3 c6 24 51 a4 c5 66 6c 30 9a f0 32
       -34 -94 -67 -64 -13 -58 36 81 -92 -59 102 108 48 -102 -16 50
0000f0 0e de 58 25 1c fd f3 29 3b cc c4 32 bc 97 87 f1
       14 -34 88 37 28 -3 -13 41 59 -52 -60 50 -68 -105 -121 -15

sequential/y_pred/MatMul i1 [2, 119040] scale=0.00036160447 zero_point=0
000000 fc f1 02 f4 06 f0 fb 06 d6 f6 ef 07 fc 0c d7 ef
       -0.0014464179 -0.005424067 0.00072320894 -0.0043392535 0.0021696268 -0.0057856715 -0.0018080224 0.0021696268 -0.015187387 -0.0036160448 -0.006147276 0.0025312314 -0.0014464179 0.0043392535 -0.014825784 -0.006147276
000010 07 00 07 f6 07 0f d5 04 f1 fb ee ef 12 08 ec 04
       0.0025312314 0.0 0.0025312314 -0.0036160448 0.0025312314 0.005424067 -0.015548992 0.0014464179 -0.005424067 -0.0018080224 -0.0065088803 -0.006147276 0.0065088803 0.0028928358 -0.0072320895 0.0014464179
000020 09 0d f4 ed 07 ea e4 03 ee 12 f4 ea fd f4 ec d7
       0.0032544401 0.004700858 -0.0043392535 -0.006870485 0.0025312314 -0.007955299 -0.0101249255 0.0010848134 -0.0065088803 0.0065088803 -0.0043392535 -0.007955299 -0.0010848134 -0.0043392535 -0.0072320895 -0.014825784
000030 fe ee 18 00 16 13 d2 03 2a 10 ea f7 06 d3 d8 f7
       -0.00072320894 -0.0065088803 0.008678507 0.0 0.007955299 0.006870485 -0.016633805 0.0010848134 0.015187387 0.0057856715 -0.007955299 -0.0032544401 0.0021696268 -0.0162722 -0.014464179 -0.0032544401
000040 fa f8 ff e7 12 ed fc 01 15 fc c3 01 ff f5 de e3
       -0.0021696268 -0.0028928358 -0.00036160447 -0.009040112 0.0065088803 -0.006870485 -0.0014464179 0.00036160447 0.0075936937 -0.0014464179 -0.022057872 0.00036160447 -0.00036160447 -0.0039776494 -0.012294552 -0.010486529
000050 f5 ed 0a f5 f7 fb 02 f4 f3 ea ee f4 f1 fc dd f6
       -0.0039776494 -0.006870485 0.0036160448 -0.0039776494 -0.0032544401 -0.0018080224 0.00072320894 -0.0043392535 -0.004700858 -0.007955299 -0.0065088803 -0.0043392535 -0.005424067 -0.0014464179 -0.012656157 -0.0036160448
000060 0d 04 14 08 01 e9 fc ef e7 e7 07 df ff 17 05 f4
       0.004700858 0.0014464179 0.0072320895 0.0028928358 0.00036160447 -0.008316902 -0.0014464179 -0.006147276 -0.009040112 -0.009040112 0.0025312314 -0.011932948 -0.00036160447 0.008316902 0.0018080224 -0.0043392535
000070 0f fa fc 08 f0 eb e6 f4 12 f1 4a 13 ff ff 23 f0
       0.005424067 -0.0021696268 -0.0014464179 0.0028928358 -0.0057856715 -0.0075936937 -0.009401716 -0.0043392535 0.0065088803 -0.005424067 0.02675873 0.006870485 -0.00036160447 -0.00036160447 0.012656157 -0.0057856715
000080 ff fa 04 05 0b 01 20 19 00 c1 22 f8 06 f8 1e 03
       -0.00036160447 -0.0021696268 0.0014464179 0.0018080224 0.0039776494 0.00036160447 0.011571343 0.009040112 0.0 -0.022781081 0.012294552 -0.0028928358 0.0021696268 -0.0028928358 0.010848134 0.0010848134
000090 f5 f5 12 0c 01 fe dc 0c eb b7 21 f9 06 1b 18 d7
       -0.0039776494 -0.0039776494 0.0065088803 0.0043392535 0.00036160447 -0.00072320894 -0.013017761 0.0043392535 -0.0075936937 -0.026397126 0.011932948 -0.0025312314 0.0021696268 0.009763321 0.008678507 -0.014825784
0000a0 fb 00 08 fa fe f1 a2 09 da df 27 bc ec f6 28 e0
       -0.0018080224 0.0 0.0028928358 -0.0021696268 -0.00072320894 -0.005424067 -0.03399082 0.0032544401 -0.01374097 -0.011932948 0.014102574 -0.024589105 -0.0072320895 -0.0036160448 0.014464179 -0.011571343
0000b0 0a ff fb 04 fc 00 cd f4 28 32 20 cc f1 fc f9 e2
       0.0036160448 -0.00036160447 -0.0018080224 0.0014464179 -0.0014464179 0.0 -0.018441828 -0.0043392535 0.014464179 0.018080223 0.011571343 -0.018803433 -0.005424067 -0.0014464179 -0.0025312314 -0.010848134
0000c0 ec e9 ef f3 14 02 d6 fb 45 16 17 f7 fd 09 16 ed
       -0.0072320895 -0.008316902 -0.006147276 -0.004700858 0.0072320895 0.00072320894 -0.015187387 -0.0018080224 0.02495071 0.007955299 0.008316902 -0.0032544401 -0.0010848134 0.0032544401 0.007955299 -0.006870485
0000d0 13 f3 0f 04 f2 f4 fd 09 06 ec 24 df fb 28 24 0a
       0.006870485 -0.004700858 0.005424067 0.0014464179 -0.0050624628 -0.0043392535 -0.0010848134 0.0032544401 0.0021696268 -0.0072320895 0.013017761 -0.011932948 -0.0018080224 0.014464179 0.013017761 0.0036160448
0000e0 0c e2 10 fc 12 08 f6 f7 fb 0f fd 03 fc 0b 10 08
       0.0043392535 -0.010848134 0.0057856715 -0.0014464179 0.0065088803 0.0028928358 -0.0036160448 -0.0032544401 -0.0018080224 0.005424067 -0.0010848134 0.0010848134 -0.0014464179 0.0039776494 0.0057856715 0.0028928358
0000f0 f6 f0 05 02 fe 06 18 ed 09 0a 16 f8 f7 26 08 ef
       -0.0036160448 -0.0057856715 0.0018080224 0.00072320894 -0.00072320894 0.0021696268 0.008678507 -0.006870485 0.0032544401 0.0036160448 0.007955299 -0.0028928358 -0.0032544401 0.01374097 0.0028928358 -0.006147276
